{"class_name": "Sequential", "config": {"name": "sequential_1", "layers": [{"module": "keras.layers", "class_name": "InputLayer", "config": {"batch_input_shape": [null, 200, 200, 3], "dtype": "float32", "sparse": false, "ragged": false, "name": "densenet121_input"}, "registered_name": null}, {"module": "keras.src.engine.functional", "class_name": "Functional", "config": {"name": "densenet121", "trainable": false, "layers": [{"module": "keras.layers", "class_name": "InputLayer", "config": {"batch_input_shape": [null, 200, 200, 3], "dtype": "float32", "sparse": false, "ragged": false, "name": "input_2"}, "registered_name": null, "name": "input_2", "inbound_nodes": []}, {"module": "keras.layers", "class_name": "ZeroPadding2D", "config": {"name": "zero_padding2d_2", "trainable": false, "dtype": "float32", "padding": [[3, 3], [3, 3]], "data_format": "channels_last"}, "registered_name": null, "build_config": {"input_shape": [null, 200, 200, 3]}, "name": "zero_padding2d_2", "inbound_nodes": [[["input_2", 0, 0, {}]]]}, {"module": "keras.layers", "class_name": "Conv2D", "config": {"name": "conv1/conv", "trainable": false, "dtype": "float32", "filters": 64, "kernel_size": [7, 7], "strides": [2, 2], "padding": "valid", "data_format": "channels_last", "dilation_rate": [1, 1], "groups": 1, "activation": "linear", "use_bias": false, "kernel_initializer": {"module": "keras.initializers", "class_name": "GlorotUniform", "config": {"seed": null}, "registered_name": null}, "bias_initializer": {"module": "keras.initializers", "class_name": "Zeros", "config": {}, "registered_name": null}, "kernel_regularizer": null, "bias_regularizer": null, "activity_regularizer": null, "kernel_constraint": null, "bias_constraint": null}, "registered_name": null, "build_config": {"input_shape": [null, 206, 206, 3]}, "name": "conv1/conv", "inbound_nodes": [[["zero_padding2d_2", 0, 0, {}]]]}, {"module": "keras.layers", "class_name": "BatchNormalization", "config": {"name": "conv1/bn", "trainable": false, "dtype": "float32", "axis": [3], "momentum": 0.99, "epsilon": 1.001e-05, "center": true, "scale": true, "beta_initializer": {"module": "keras.initializers", "class_name": "Zeros", "config": {}, "registered_name": null}, "gamma_initializer": {"module": "keras.initializers", "class_name": "Ones", "config": {}, "registered_name": null}, "moving_mean_initializer": {"module": "keras.initializers", "class_name": "Zeros", "config": {}, "registered_name": null}, "moving_variance_initializer": {"module": "keras.initializers", "class_name": "Ones", "config": {}, "registered_name": null}, "beta_regularizer": null, "gamma_regularizer": null, "beta_constraint": null, "gamma_constraint": null}, "registered_name": null, "build_config": {"input_shape": [null, 100, 100, 64]}, "name": "conv1/bn", "inbound_nodes": [[["conv1/conv", 0, 0, {}]]]}, {"module": "keras.layers", "class_name": "Activation", "config": {"name": "conv1/relu", "trainable": false, "dtype": "float32", "activation": "relu"}, "registered_name": null, "build_config": {"input_shape": [null, 100, 100, 64]}, "name": "conv1/relu", "inbound_nodes": [[["conv1/bn", 0, 0, {}]]]}, {"module": "keras.layers", "class_name": "ZeroPadding2D", "config": {"name": "zero_padding2d_3", "trainable": false, "dtype": "float32", "padding": [[1, 1], [1, 1]], "data_format": "channels_last"}, "registered_name": null, "build_config": {"input_shape": [null, 100, 100, 64]}, "name": "zero_padding2d_3", "inbound_nodes": [[["conv1/relu", 0, 0, {}]]]}, {"module": "keras.layers", "class_name": "MaxPooling2D", "config": {"name": "pool1", "trainable": false, "dtype": "float32", "pool_size": [3, 3], "padding": "valid", "strides": [2, 2], "data_format": "channels_last"}, "registered_name": null, "build_config": {"input_shape": [null, 102, 102, 64]}, "name": "pool1", "inbound_nodes": [[["zero_padding2d_3", 0, 0, {}]]]}, {"module": "keras.layers", "class_name": "BatchNormalization", "config": {"name": "conv2_block1_0_bn", "trainable": false, "dtype": "float32", "axis": [3], "momentum": 0.99, "epsilon": 1.001e-05, "center": true, "scale": true, "beta_initializer": {"module": "keras.initializers", "class_name": "Zeros", "config": {}, "registered_name": null}, "gamma_initializer": {"module": "keras.initializers", "class_name": "Ones", "config": {}, "registered_name": null}, "moving_mean_initializer": {"module": "keras.initializers", "class_name": "Zeros", "config": {}, "registered_name": null}, "moving_variance_initializer": {"module": "keras.initializers", "class_name": "Ones", "config": {}, "registered_name": null}, "beta_regularizer": null, "gamma_regularizer": null, "beta_constraint": null, "gamma_constraint": null}, "registered_name": null, "build_config": {"input_shape": [null, 50, 50, 64]}, "name": "conv2_block1_0_bn", "inbound_nodes": [[["pool1", 0, 0, {}]]]}, {"module": "keras.layers", "class_name": "Activation", "config": {"name": "conv2_block1_0_relu", "trainable": false, "dtype": "float32", "activation": "relu"}, "registered_name": null, "build_config": {"input_shape": [null, 50, 50, 64]}, "name": "conv2_block1_0_relu", "inbound_nodes": [[["conv2_block1_0_bn", 0, 0, {}]]]}, {"module": "keras.layers", "class_name": "Conv2D", "config": {"name": "conv2_block1_1_conv", "trainable": false, "dtype": "float32", "filters": 128, "kernel_size": [1, 1], "strides": [1, 1], "padding": "valid", "data_format": "channels_last", "dilation_rate": [1, 1], "groups": 1, "activation": "linear", "use_bias": false, "kernel_initializer": {"module": "keras.initializers", "class_name": "GlorotUniform", "config": {"seed": null}, "registered_name": null}, "bias_initializer": {"module": "keras.initializers", "class_name": "Zeros", "config": {}, "registered_name": null}, "kernel_regularizer": null, "bias_regularizer": null, "activity_regularizer": null, "kernel_constraint": null, "bias_constraint": null}, "registered_name": null, "build_config": {"input_shape": [null, 50, 50, 64]}, "name": "conv2_block1_1_conv", "inbound_nodes": [[["conv2_block1_0_relu", 0, 0, {}]]]}, {"module": "keras.layers", "class_name": "BatchNormalization", "config": {"name": "conv2_block1_1_bn", "trainable": false, "dtype": "float32", "axis": [3], "momentum": 0.99, "epsilon": 1.001e-05, "center": true, "scale": true, "beta_initializer": {"module": "keras.initializers", "class_name": "Zeros", "config": {}, "registered_name": null}, "gamma_initializer": {"module": "keras.initializers", "class_name": "Ones", "config": {}, "registered_name": null}, "moving_mean_initializer": {"module": "keras.initializers", "class_name": "Zeros", "config": {}, "registered_name": null}, "moving_variance_initializer": {"module": "keras.initializers", "class_name": "Ones", "config": {}, "registered_name": null}, "beta_regularizer": null, "gamma_regularizer": null, "beta_constraint": null, "gamma_constraint": null}, "registered_name": null, "build_config": {"input_shape": [null, 50, 50, 128]}, "name": "conv2_block1_1_bn", "inbound_nodes": [[["conv2_block1_1_conv", 0, 0, {}]]]}, {"module": "keras.layers", "class_name": "Activation", "config": {"name": "conv2_block1_1_relu", "trainable": false, "dtype": "float32", "activation": "relu"}, "registered_name": null, "build_config": {"input_shape": [null, 50, 50, 128]}, "name": "conv2_block1_1_relu", "inbound_nodes": [[["conv2_block1_1_bn", 0, 0, {}]]]}, {"module": "keras.layers", "class_name": "Conv2D", "config": {"name": "conv2_block1_2_conv", "trainable": false, "dtype": "float32", "filters": 32, "kernel_size": [3, 3], "strides": [1, 1], "padding": "same", "data_format": "channels_last", "dilation_rate": [1, 1], "groups": 1, "activation": "linear", "use_bias": false, "kernel_initializer": {"module": "keras.initializers", "class_name": "GlorotUniform", "config": {"seed": null}, "registered_name": null}, "bias_initializer": {"module": "keras.initializers", "class_name": "Zeros", "config": {}, "registered_name": null}, "kernel_regularizer": null, "bias_regularizer": null, "activity_regularizer": null, "kernel_constraint": null, "bias_constraint": null}, "registered_name": null, "build_config": {"input_shape": [null, 50, 50, 128]}, "name": "conv2_block1_2_conv", "inbound_nodes": [[["conv2_block1_1_relu", 0, 0, {}]]]}, {"module": "keras.layers", "class_name": "Concatenate", "config": {"name": "conv2_block1_concat", "trainable": false, "dtype": "float32", "axis": 3}, "registered_name": null, "build_config": {"input_shape": [[null, 50, 50, 64], [null, 50, 50, 32]]}, "name": "conv2_block1_concat", "inbound_nodes": [[["pool1", 0, 0, {}], ["conv2_block1_2_conv", 0, 0, {}]]]}, {"module": "keras.layers", "class_name": "BatchNormalization", "config": {"name": "conv2_block2_0_bn", "trainable": false, "dtype": "float32", "axis": [3], "momentum": 0.99, "epsilon": 1.001e-05, "center": true, "scale": true, "beta_initializer": {"module": "keras.initializers", "class_name": "Zeros", "config": {}, "registered_name": null}, "gamma_initializer": {"module": "keras.initializers", "class_name": "Ones", "config": {}, "registered_name": null}, "moving_mean_initializer": {"module": "keras.initializers", "class_name": "Zeros", "config": {}, "registered_name": null}, "moving_variance_initializer": {"module": "keras.initializers", "class_name": "Ones", "config": {}, "registered_name": null}, "beta_regularizer": null, "gamma_regularizer": null, "beta_constraint": null, "gamma_constraint": null}, "registered_name": null, "build_config": {"input_shape": [null, 50, 50, 96]}, "name": "conv2_block2_0_bn", "inbound_nodes": [[["conv2_block1_concat", 0, 0, {}]]]}, {"module": "keras.layers", "class_name": "Activation", "config": {"name": "conv2_block2_0_relu", "trainable": false, "dtype": "float32", "activation": "relu"}, "registered_name": null, "build_config": {"input_shape": [null, 50, 50, 96]}, "name": "conv2_block2_0_relu", "inbound_nodes": [[["conv2_block2_0_bn", 0, 0, {}]]]}, {"module": "keras.layers", "class_name": "Conv2D", "config": {"name": "conv2_block2_1_conv", "trainable": false, "dtype": "float32", "filters": 128, "kernel_size": [1, 1], "strides": [1, 1], "padding": "valid", "data_format": "channels_last", "dilation_rate": [1, 1], "groups": 1, "activation": "linear", "use_bias": false, "kernel_initializer": {"module": "keras.initializers", "class_name": "GlorotUniform", "config": {"seed": null}, "registered_name": null}, "bias_initializer": {"module": "keras.initializers", "class_name": "Zeros", "config": {}, "registered_name": null}, "kernel_regularizer": null, "bias_regularizer": null, "activity_regularizer": null, "kernel_constraint": null, "bias_constraint": null}, "registered_name": null, "build_config": {"input_shape": [null, 50, 50, 96]}, "name": "conv2_block2_1_conv", "inbound_nodes": [[["conv2_block2_0_relu", 0, 0, {}]]]}, {"module": "keras.layers", "class_name": "BatchNormalization", "config": {"name": "conv2_block2_1_bn", "trainable": false, "dtype": "float32", "axis": [3], "momentum": 0.99, "epsilon": 1.001e-05, "center": true, "scale": true, "beta_initializer": {"module": "keras.initializers", "class_name": "Zeros", "config": {}, "registered_name": null}, "gamma_initializer": {"module": "keras.initializers", "class_name": "Ones", "config": {}, "registered_name": null}, "moving_mean_initializer": {"module": "keras.initializers", "class_name": "Zeros", "config": {}, "registered_name": null}, "moving_variance_initializer": {"module": "keras.initializers", "class_name": "Ones", "config": {}, "registered_name": null}, "beta_regularizer": null, "gamma_regularizer": null, "beta_constraint": null, "gamma_constraint": null}, "registered_name": null, "build_config": {"input_shape": [null, 50, 50, 128]}, "name": "conv2_block2_1_bn", "inbound_nodes": [[["conv2_block2_1_conv", 0, 0, {}]]]}, {"module": "keras.layers", "class_name": "Activation", "config": {"name": "conv2_block2_1_relu", "trainable": false, "dtype": "float32", "activation": "relu"}, "registered_name": null, "build_config": {"input_shape": [null, 50, 50, 128]}, "name": "conv2_block2_1_relu", "inbound_nodes": [[["conv2_block2_1_bn", 0, 0, {}]]]}, {"module": "keras.layers", "class_name": "Conv2D", "config": {"name": "conv2_block2_2_conv", "trainable": false, "dtype": "float32", "filters": 32, "kernel_size": [3, 3], "strides": [1, 1], "padding": "same", "data_format": "channels_last", "dilation_rate": [1, 1], "groups": 1, "activation": "linear", "use_bias": false, "kernel_initializer": {"module": "keras.initializers", "class_name": "GlorotUniform", "config": {"seed": null}, "registered_name": null}, "bias_initializer": {"module": "keras.initializers", "class_name": "Zeros", "config": {}, "registered_name": null}, "kernel_regularizer": null, "bias_regularizer": null, "activity_regularizer": null, "kernel_constraint": null, "bias_constraint": null}, "registered_name": null, "build_config": {"input_shape": [null, 50, 50, 128]}, "name": "conv2_block2_2_conv", "inbound_nodes": [[["conv2_block2_1_relu", 0, 0, {}]]]}, {"module": "keras.layers", "class_name": "Concatenate", "config": {"name": "conv2_block2_concat", "trainable": false, "dtype": "float32", "axis": 3}, "registered_name": null, "build_config": {"input_shape": [[null, 50, 50, 96], [null, 50, 50, 32]]}, "name": "conv2_block2_concat", "inbound_nodes": [[["conv2_block1_concat", 0, 0, {}], ["conv2_block2_2_conv", 0, 0, {}]]]}, {"module": "keras.layers", "class_name": "BatchNormalization", "config": {"name": "conv2_block3_0_bn", "trainable": false, "dtype": "float32", "axis": [3], "momentum": 0.99, "epsilon": 1.001e-05, "center": true, "scale": true, "beta_initializer": {"module": "keras.initializers", "class_name": "Zeros", "config": {}, "registered_name": null}, "gamma_initializer": {"module": "keras.initializers", "class_name": "Ones", "config": {}, "registered_name": null}, "moving_mean_initializer": {"module": "keras.initializers", "class_name": "Zeros", "config": {}, "registered_name": null}, "moving_variance_initializer": {"module": "keras.initializers", "class_name": "Ones", "config": {}, "registered_name": null}, "beta_regularizer": null, "gamma_regularizer": null, "beta_constraint": null, "gamma_constraint": null}, "registered_name": null, "build_config": {"input_shape": [null, 50, 50, 128]}, "name": "conv2_block3_0_bn", "inbound_nodes": [[["conv2_block2_concat", 0, 0, {}]]]}, {"module": "keras.layers", "class_name": "Activation", "config": {"name": "conv2_block3_0_relu", "trainable": false, "dtype": "float32", "activation": "relu"}, "registered_name": null, "build_config": {"input_shape": [null, 50, 50, 128]}, "name": "conv2_block3_0_relu", "inbound_nodes": [[["conv2_block3_0_bn", 0, 0, {}]]]}, {"module": "keras.layers", "class_name": "Conv2D", "config": {"name": "conv2_block3_1_conv", "trainable": false, "dtype": "float32", "filters": 128, "kernel_size": [1, 1], "strides": [1, 1], "padding": "valid", "data_format": "channels_last", "dilation_rate": [1, 1], "groups": 1, "activation": "linear", "use_bias": false, "kernel_initializer": {"module": "keras.initializers", "class_name": "GlorotUniform", "config": {"seed": null}, "registered_name": null}, "bias_initializer": {"module": "keras.initializers", "class_name": "Zeros", "config": {}, "registered_name": null}, "kernel_regularizer": null, "bias_regularizer": null, "activity_regularizer": null, "kernel_constraint": null, "bias_constraint": null}, "registered_name": null, "build_config": {"input_shape": [null, 50, 50, 128]}, "name": "conv2_block3_1_conv", "inbound_nodes": [[["conv2_block3_0_relu", 0, 0, {}]]]}, {"module": "keras.layers", "class_name": "BatchNormalization", "config": {"name": "conv2_block3_1_bn", "trainable": false, "dtype": "float32", "axis": [3], "momentum": 0.99, "epsilon": 1.001e-05, "center": true, "scale": true, "beta_initializer": {"module": "keras.initializers", "class_name": "Zeros", "config": {}, "registered_name": null}, "gamma_initializer": {"module": "keras.initializers", "class_name": "Ones", "config": {}, "registered_name": null}, "moving_mean_initializer": {"module": "keras.initializers", "class_name": "Zeros", "config": {}, "registered_name": null}, "moving_variance_initializer": {"module": "keras.initializers", "class_name": "Ones", "config": {}, "registered_name": null}, "beta_regularizer": null, "gamma_regularizer": null, "beta_constraint": null, "gamma_constraint": null}, "registered_name": null, "build_config": {"input_shape": [null, 50, 50, 128]}, "name": "conv2_block3_1_bn", "inbound_nodes": [[["conv2_block3_1_conv", 0, 0, {}]]]}, {"module": "keras.layers", "class_name": "Activation", "config": {"name": "conv2_block3_1_relu", "trainable": false, "dtype": "float32", "activation": "relu"}, "registered_name": null, "build_config": {"input_shape": [null, 50, 50, 128]}, "name": "conv2_block3_1_relu", "inbound_nodes": [[["conv2_block3_1_bn", 0, 0, {}]]]}, {"module": "keras.layers", "class_name": "Conv2D", "config": {"name": "conv2_block3_2_conv", "trainable": false, "dtype": "float32", "filters": 32, "kernel_size": [3, 3], "strides": [1, 1], "padding": "same", "data_format": "channels_last", "dilation_rate": [1, 1], "groups": 1, "activation": "linear", "use_bias": false, "kernel_initializer": {"module": "keras.initializers", "class_name": "GlorotUniform", "config": {"seed": null}, "registered_name": null}, "bias_initializer": {"module": "keras.initializers", "class_name": "Zeros", "config": {}, "registered_name": null}, "kernel_regularizer": null, "bias_regularizer": null, "activity_regularizer": null, "kernel_constraint": null, "bias_constraint": null}, "registered_name": null, "build_config": {"input_shape": [null, 50, 50, 128]}, "name": "conv2_block3_2_conv", "inbound_nodes": [[["conv2_block3_1_relu", 0, 0, {}]]]}, {"module": "keras.layers", "class_name": "Concatenate", "config": {"name": "conv2_block3_concat", "trainable": false, "dtype": "float32", "axis": 3}, "registered_name": null, "build_config": {"input_shape": [[null, 50, 50, 128], [null, 50, 50, 32]]}, "name": "conv2_block3_concat", "inbound_nodes": [[["conv2_block2_concat", 0, 0, {}], ["conv2_block3_2_conv", 0, 0, {}]]]}, {"module": "keras.layers", "class_name": "BatchNormalization", "config": {"name": "conv2_block4_0_bn", "trainable": false, "dtype": "float32", "axis": [3], "momentum": 0.99, "epsilon": 1.001e-05, "center": true, "scale": true, "beta_initializer": {"module": "keras.initializers", "class_name": "Zeros", "config": {}, "registered_name": null}, "gamma_initializer": {"module": "keras.initializers", "class_name": "Ones", "config": {}, "registered_name": null}, "moving_mean_initializer": {"module": "keras.initializers", "class_name": "Zeros", "config": {}, "registered_name": null}, "moving_variance_initializer": {"module": "keras.initializers", "class_name": "Ones", "config": {}, "registered_name": null}, "beta_regularizer": null, "gamma_regularizer": null, "beta_constraint": null, "gamma_constraint": null}, "registered_name": null, "build_config": {"input_shape": [null, 50, 50, 160]}, "name": "conv2_block4_0_bn", "inbound_nodes": [[["conv2_block3_concat", 0, 0, {}]]]}, {"module": "keras.layers", "class_name": "Activation", "config": {"name": "conv2_block4_0_relu", "trainable": false, "dtype": "float32", "activation": "relu"}, "registered_name": null, "build_config": {"input_shape": [null, 50, 50, 160]}, "name": "conv2_block4_0_relu", "inbound_nodes": [[["conv2_block4_0_bn", 0, 0, {}]]]}, {"module": "keras.layers", "class_name": "Conv2D", "config": {"name": "conv2_block4_1_conv", "trainable": false, "dtype": "float32", "filters": 128, "kernel_size": [1, 1], "strides": [1, 1], "padding": "valid", "data_format": "channels_last", "dilation_rate": [1, 1], "groups": 1, "activation": "linear", "use_bias": false, "kernel_initializer": {"module": "keras.initializers", "class_name": "GlorotUniform", "config": {"seed": null}, "registered_name": null}, "bias_initializer": {"module": "keras.initializers", "class_name": "Zeros", "config": {}, "registered_name": null}, "kernel_regularizer": null, "bias_regularizer": null, "activity_regularizer": null, "kernel_constraint": null, "bias_constraint": null}, "registered_name": null, "build_config": {"input_shape": [null, 50, 50, 160]}, "name": "conv2_block4_1_conv", "inbound_nodes": [[["conv2_block4_0_relu", 0, 0, {}]]]}, {"module": "keras.layers", "class_name": "BatchNormalization", "config": {"name": "conv2_block4_1_bn", "trainable": false, "dtype": "float32", "axis": [3], "momentum": 0.99, "epsilon": 1.001e-05, "center": true, "scale": true, "beta_initializer": {"module": "keras.initializers", "class_name": "Zeros", "config": {}, "registered_name": null}, "gamma_initializer": {"module": "keras.initializers", "class_name": "Ones", "config": {}, "registered_name": null}, "moving_mean_initializer": {"module": "keras.initializers", "class_name": "Zeros", "config": {}, "registered_name": null}, "moving_variance_initializer": {"module": "keras.initializers", "class_name": "Ones", "config": {}, "registered_name": null}, "beta_regularizer": null, "gamma_regularizer": null, "beta_constraint": null, "gamma_constraint": null}, "registered_name": null, "build_config": {"input_shape": [null, 50, 50, 128]}, "name": "conv2_block4_1_bn", "inbound_nodes": [[["conv2_block4_1_conv", 0, 0, {}]]]}, {"module": "keras.layers", "class_name": "Activation", "config": {"name": "conv2_block4_1_relu", "trainable": false, "dtype": "float32", "activation": "relu"}, "registered_name": null, "build_config": {"input_shape": [null, 50, 50, 128]}, "name": "conv2_block4_1_relu", "inbound_nodes": [[["conv2_block4_1_bn", 0, 0, {}]]]}, {"module": "keras.layers", "class_name": "Conv2D", "config": {"name": "conv2_block4_2_conv", "trainable": false, "dtype": "float32", "filters": 32, "kernel_size": [3, 3], "strides": [1, 1], "padding": "same", "data_format": "channels_last", "dilation_rate": [1, 1], "groups": 1, "activation": "linear", "use_bias": false, "kernel_initializer": {"module": "keras.initializers", "class_name": "GlorotUniform", "config": {"seed": null}, "registered_name": null}, "bias_initializer": {"module": "keras.initializers", "class_name": "Zeros", "config": {}, "registered_name": null}, "kernel_regularizer": null, "bias_regularizer": null, "activity_regularizer": null, "kernel_constraint": null, "bias_constraint": null}, "registered_name": null, "build_config": {"input_shape": [null, 50, 50, 128]}, "name": "conv2_block4_2_conv", "inbound_nodes": [[["conv2_block4_1_relu", 0, 0, {}]]]}, {"module": "keras.layers", "class_name": "Concatenate", "config": {"name": "conv2_block4_concat", "trainable": false, "dtype": "float32", "axis": 3}, "registered_name": null, "build_config": {"input_shape": [[null, 50, 50, 160], [null, 50, 50, 32]]}, "name": "conv2_block4_concat", "inbound_nodes": [[["conv2_block3_concat", 0, 0, {}], ["conv2_block4_2_conv", 0, 0, {}]]]}, {"module": "keras.layers", "class_name": "BatchNormalization", "config": {"name": "conv2_block5_0_bn", "trainable": false, "dtype": "float32", "axis": [3], "momentum": 0.99, "epsilon": 1.001e-05, "center": true, "scale": true, "beta_initializer": {"module": "keras.initializers", "class_name": "Zeros", "config": {}, "registered_name": null}, "gamma_initializer": {"module": "keras.initializers", "class_name": "Ones", "config": {}, "registered_name": null}, "moving_mean_initializer": {"module": "keras.initializers", "class_name": "Zeros", "config": {}, "registered_name": null}, "moving_variance_initializer": {"module": "keras.initializers", "class_name": "Ones", "config": {}, "registered_name": null}, "beta_regularizer": null, "gamma_regularizer": null, "beta_constraint": null, "gamma_constraint": null}, "registered_name": null, "build_config": {"input_shape": [null, 50, 50, 192]}, "name": "conv2_block5_0_bn", "inbound_nodes": [[["conv2_block4_concat", 0, 0, {}]]]}, {"module": "keras.layers", "class_name": "Activation", "config": {"name": "conv2_block5_0_relu", "trainable": false, "dtype": "float32", "activation": "relu"}, "registered_name": null, "build_config": {"input_shape": [null, 50, 50, 192]}, "name": "conv2_block5_0_relu", "inbound_nodes": [[["conv2_block5_0_bn", 0, 0, {}]]]}, {"module": "keras.layers", "class_name": "Conv2D", "config": {"name": "conv2_block5_1_conv", "trainable": false, "dtype": "float32", "filters": 128, "kernel_size": [1, 1], "strides": [1, 1], "padding": "valid", "data_format": "channels_last", "dilation_rate": [1, 1], "groups": 1, "activation": "linear", "use_bias": false, "kernel_initializer": {"module": "keras.initializers", "class_name": "GlorotUniform", "config": {"seed": null}, "registered_name": null}, "bias_initializer": {"module": "keras.initializers", "class_name": "Zeros", "config": {}, "registered_name": null}, "kernel_regularizer": null, "bias_regularizer": null, "activity_regularizer": null, "kernel_constraint": null, "bias_constraint": null}, "registered_name": null, "build_config": {"input_shape": [null, 50, 50, 192]}, "name": "conv2_block5_1_conv", "inbound_nodes": [[["conv2_block5_0_relu", 0, 0, {}]]]}, {"module": "keras.layers", "class_name": "BatchNormalization", "config": {"name": "conv2_block5_1_bn", "trainable": false, "dtype": "float32", "axis": [3], "momentum": 0.99, "epsilon": 1.001e-05, "center": true, "scale": true, "beta_initializer": {"module": "keras.initializers", "class_name": "Zeros", "config": {}, "registered_name": null}, "gamma_initializer": {"module": "keras.initializers", "class_name": "Ones", "config": {}, "registered_name": null}, "moving_mean_initializer": {"module": "keras.initializers", "class_name": "Zeros", "config": {}, "registered_name": null}, "moving_variance_initializer": {"module": "keras.initializers", "class_name": "Ones", "config": {}, "registered_name": null}, "beta_regularizer": null, "gamma_regularizer": null, "beta_constraint": null, "gamma_constraint": null}, "registered_name": null, "build_config": {"input_shape": [null, 50, 50, 128]}, "name": "conv2_block5_1_bn", "inbound_nodes": [[["conv2_block5_1_conv", 0, 0, {}]]]}, {"module": "keras.layers", "class_name": "Activation", "config": {"name": "conv2_block5_1_relu", "trainable": false, "dtype": "float32", "activation": "relu"}, "registered_name": null, "build_config": {"input_shape": [null, 50, 50, 128]}, "name": "conv2_block5_1_relu", "inbound_nodes": [[["conv2_block5_1_bn", 0, 0, {}]]]}, {"module": "keras.layers", "class_name": "Conv2D", "config": {"name": "conv2_block5_2_conv", "trainable": false, "dtype": "float32", "filters": 32, "kernel_size": [3, 3], "strides": [1, 1], "padding": "same", "data_format": "channels_last", "dilation_rate": [1, 1], "groups": 1, "activation": "linear", "use_bias": false, "kernel_initializer": {"module": "keras.initializers", "class_name": "GlorotUniform", "config": {"seed": null}, "registered_name": null}, "bias_initializer": {"module": "keras.initializers", "class_name": "Zeros", "config": {}, "registered_name": null}, "kernel_regularizer": null, "bias_regularizer": null, "activity_regularizer": null, "kernel_constraint": null, "bias_constraint": null}, "registered_name": null, "build_config": {"input_shape": [null, 50, 50, 128]}, "name": "conv2_block5_2_conv", "inbound_nodes": [[["conv2_block5_1_relu", 0, 0, {}]]]}, {"module": "keras.layers", "class_name": "Concatenate", "config": {"name": "conv2_block5_concat", "trainable": false, "dtype": "float32", "axis": 3}, "registered_name": null, "build_config": {"input_shape": [[null, 50, 50, 192], [null, 50, 50, 32]]}, "name": "conv2_block5_concat", "inbound_nodes": [[["conv2_block4_concat", 0, 0, {}], ["conv2_block5_2_conv", 0, 0, {}]]]}, {"module": "keras.layers", "class_name": "BatchNormalization", "config": {"name": "conv2_block6_0_bn", "trainable": false, "dtype": "float32", "axis": [3], "momentum": 0.99, "epsilon": 1.001e-05, "center": true, "scale": true, "beta_initializer": {"module": "keras.initializers", "class_name": "Zeros", "config": {}, "registered_name": null}, "gamma_initializer": {"module": "keras.initializers", "class_name": "Ones", "config": {}, "registered_name": null}, "moving_mean_initializer": {"module": "keras.initializers", "class_name": "Zeros", "config": {}, "registered_name": null}, "moving_variance_initializer": {"module": "keras.initializers", "class_name": "Ones", "config": {}, "registered_name": null}, "beta_regularizer": null, "gamma_regularizer": null, "beta_constraint": null, "gamma_constraint": null}, "registered_name": null, "build_config": {"input_shape": [null, 50, 50, 224]}, "name": "conv2_block6_0_bn", "inbound_nodes": [[["conv2_block5_concat", 0, 0, {}]]]}, {"module": "keras.layers", "class_name": "Activation", "config": {"name": "conv2_block6_0_relu", "trainable": false, "dtype": "float32", "activation": "relu"}, "registered_name": null, "build_config": {"input_shape": [null, 50, 50, 224]}, "name": "conv2_block6_0_relu", "inbound_nodes": [[["conv2_block6_0_bn", 0, 0, {}]]]}, {"module": "keras.layers", "class_name": "Conv2D", "config": {"name": "conv2_block6_1_conv", "trainable": false, "dtype": "float32", "filters": 128, "kernel_size": [1, 1], "strides": [1, 1], "padding": "valid", "data_format": "channels_last", "dilation_rate": [1, 1], "groups": 1, "activation": "linear", "use_bias": false, "kernel_initializer": {"module": "keras.initializers", "class_name": "GlorotUniform", "config": {"seed": null}, "registered_name": null}, "bias_initializer": {"module": "keras.initializers", "class_name": "Zeros", "config": {}, "registered_name": null}, "kernel_regularizer": null, "bias_regularizer": null, "activity_regularizer": null, "kernel_constraint": null, "bias_constraint": null}, "registered_name": null, "build_config": {"input_shape": [null, 50, 50, 224]}, "name": "conv2_block6_1_conv", "inbound_nodes": [[["conv2_block6_0_relu", 0, 0, {}]]]}, {"module": "keras.layers", "class_name": "BatchNormalization", "config": {"name": "conv2_block6_1_bn", "trainable": false, "dtype": "float32", "axis": [3], "momentum": 0.99, "epsilon": 1.001e-05, "center": true, "scale": true, "beta_initializer": {"module": "keras.initializers", "class_name": "Zeros", "config": {}, "registered_name": null}, "gamma_initializer": {"module": "keras.initializers", "class_name": "Ones", "config": {}, "registered_name": null}, "moving_mean_initializer": {"module": "keras.initializers", "class_name": "Zeros", "config": {}, "registered_name": null}, "moving_variance_initializer": {"module": "keras.initializers", "class_name": "Ones", "config": {}, "registered_name": null}, "beta_regularizer": null, "gamma_regularizer": null, "beta_constraint": null, "gamma_constraint": null}, "registered_name": null, "build_config": {"input_shape": [null, 50, 50, 128]}, "name": "conv2_block6_1_bn", "inbound_nodes": [[["conv2_block6_1_conv", 0, 0, {}]]]}, {"module": "keras.layers", "class_name": "Activation", "config": {"name": "conv2_block6_1_relu", "trainable": false, "dtype": "float32", "activation": "relu"}, "registered_name": null, "build_config": {"input_shape": [null, 50, 50, 128]}, "name": "conv2_block6_1_relu", "inbound_nodes": [[["conv2_block6_1_bn", 0, 0, {}]]]}, {"module": "keras.layers", "class_name": "Conv2D", "config": {"name": "conv2_block6_2_conv", "trainable": false, "dtype": "float32", "filters": 32, "kernel_size": [3, 3], "strides": [1, 1], "padding": "same", "data_format": "channels_last", "dilation_rate": [1, 1], "groups": 1, "activation": "linear", "use_bias": false, "kernel_initializer": {"module": "keras.initializers", "class_name": "GlorotUniform", "config": {"seed": null}, "registered_name": null}, "bias_initializer": {"module": "keras.initializers", "class_name": "Zeros", "config": {}, "registered_name": null}, "kernel_regularizer": null, "bias_regularizer": null, "activity_regularizer": null, "kernel_constraint": null, "bias_constraint": null}, "registered_name": null, "build_config": {"input_shape": [null, 50, 50, 128]}, "name": "conv2_block6_2_conv", "inbound_nodes": [[["conv2_block6_1_relu", 0, 0, {}]]]}, {"module": "keras.layers", "class_name": "Concatenate", "config": {"name": "conv2_block6_concat", "trainable": false, "dtype": "float32", "axis": 3}, "registered_name": null, "build_config": {"input_shape": [[null, 50, 50, 224], [null, 50, 50, 32]]}, "name": "conv2_block6_concat", "inbound_nodes": [[["conv2_block5_concat", 0, 0, {}], ["conv2_block6_2_conv", 0, 0, {}]]]}, {"module": "keras.layers", "class_name": "BatchNormalization", "config": {"name": "pool2_bn", "trainable": false, "dtype": "float32", "axis": [3], "momentum": 0.99, "epsilon": 1.001e-05, "center": true, "scale": true, "beta_initializer": {"module": "keras.initializers", "class_name": "Zeros", "config": {}, "registered_name": null}, "gamma_initializer": {"module": "keras.initializers", "class_name": "Ones", "config": {}, "registered_name": null}, "moving_mean_initializer": {"module": "keras.initializers", "class_name": "Zeros", "config": {}, "registered_name": null}, "moving_variance_initializer": {"module": "keras.initializers", "class_name": "Ones", "config": {}, "registered_name": null}, "beta_regularizer": null, "gamma_regularizer": null, "beta_constraint": null, "gamma_constraint": null}, "registered_name": null, "build_config": {"input_shape": [null, 50, 50, 256]}, "name": "pool2_bn", "inbound_nodes": [[["conv2_block6_concat", 0, 0, {}]]]}, {"module": "keras.layers", "class_name": "Activation", "config": {"name": "pool2_relu", "trainable": false, "dtype": "float32", "activation": "relu"}, "registered_name": null, "build_config": {"input_shape": [null, 50, 50, 256]}, "name": "pool2_relu", "inbound_nodes": [[["pool2_bn", 0, 0, {}]]]}, {"module": "keras.layers", "class_name": "Conv2D", "config": {"name": "pool2_conv", "trainable": false, "dtype": "float32", "filters": 128, "kernel_size": [1, 1], "strides": [1, 1], "padding": "valid", "data_format": "channels_last", "dilation_rate": [1, 1], "groups": 1, "activation": "linear", "use_bias": false, "kernel_initializer": {"module": "keras.initializers", "class_name": "GlorotUniform", "config": {"seed": null}, "registered_name": null}, "bias_initializer": {"module": "keras.initializers", "class_name": "Zeros", "config": {}, "registered_name": null}, "kernel_regularizer": null, "bias_regularizer": null, "activity_regularizer": null, "kernel_constraint": null, "bias_constraint": null}, "registered_name": null, "build_config": {"input_shape": [null, 50, 50, 256]}, "name": "pool2_conv", "inbound_nodes": [[["pool2_relu", 0, 0, {}]]]}, {"module": "keras.layers", "class_name": "AveragePooling2D", "config": {"name": "pool2_pool", "trainable": false, "dtype": "float32", "pool_size": [2, 2], "padding": "valid", "strides": [2, 2], "data_format": "channels_last"}, "registered_name": null, "build_config": {"input_shape": [null, 50, 50, 128]}, "name": "pool2_pool", "inbound_nodes": [[["pool2_conv", 0, 0, {}]]]}, {"module": "keras.layers", "class_name": "BatchNormalization", "config": {"name": "conv3_block1_0_bn", "trainable": false, "dtype": "float32", "axis": [3], "momentum": 0.99, "epsilon": 1.001e-05, "center": true, "scale": true, "beta_initializer": {"module": "keras.initializers", "class_name": "Zeros", "config": {}, "registered_name": null}, "gamma_initializer": {"module": "keras.initializers", "class_name": "Ones", "config": {}, "registered_name": null}, "moving_mean_initializer": {"module": "keras.initializers", "class_name": "Zeros", "config": {}, "registered_name": null}, "moving_variance_initializer": {"module": "keras.initializers", "class_name": "Ones", "config": {}, "registered_name": null}, "beta_regularizer": null, "gamma_regularizer": null, "beta_constraint": null, "gamma_constraint": null}, "registered_name": null, "build_config": {"input_shape": [null, 25, 25, 128]}, "name": "conv3_block1_0_bn", "inbound_nodes": [[["pool2_pool", 0, 0, {}]]]}, {"module": "keras.layers", "class_name": "Activation", "config": {"name": "conv3_block1_0_relu", "trainable": false, "dtype": "float32", "activation": "relu"}, "registered_name": null, "build_config": {"input_shape": [null, 25, 25, 128]}, "name": "conv3_block1_0_relu", "inbound_nodes": [[["conv3_block1_0_bn", 0, 0, {}]]]}, {"module": "keras.layers", "class_name": "Conv2D", "config": {"name": "conv3_block1_1_conv", "trainable": false, "dtype": "float32", "filters": 128, "kernel_size": [1, 1], "strides": [1, 1], "padding": "valid", "data_format": "channels_last", "dilation_rate": [1, 1], "groups": 1, "activation": "linear", "use_bias": false, "kernel_initializer": {"module": "keras.initializers", "class_name": "GlorotUniform", "config": {"seed": null}, "registered_name": null}, "bias_initializer": {"module": "keras.initializers", "class_name": "Zeros", "config": {}, "registered_name": null}, "kernel_regularizer": null, "bias_regularizer": null, "activity_regularizer": null, "kernel_constraint": null, "bias_constraint": null}, "registered_name": null, "build_config": {"input_shape": [null, 25, 25, 128]}, "name": "conv3_block1_1_conv", "inbound_nodes": [[["conv3_block1_0_relu", 0, 0, {}]]]}, {"module": "keras.layers", "class_name": "BatchNormalization", "config": {"name": "conv3_block1_1_bn", "trainable": false, "dtype": "float32", "axis": [3], "momentum": 0.99, "epsilon": 1.001e-05, "center": true, "scale": true, "beta_initializer": {"module": "keras.initializers", "class_name": "Zeros", "config": {}, "registered_name": null}, "gamma_initializer": {"module": "keras.initializers", "class_name": "Ones", "config": {}, "registered_name": null}, "moving_mean_initializer": {"module": "keras.initializers", "class_name": "Zeros", "config": {}, "registered_name": null}, "moving_variance_initializer": {"module": "keras.initializers", "class_name": "Ones", "config": {}, "registered_name": null}, "beta_regularizer": null, "gamma_regularizer": null, "beta_constraint": null, "gamma_constraint": null}, "registered_name": null, "build_config": {"input_shape": [null, 25, 25, 128]}, "name": "conv3_block1_1_bn", "inbound_nodes": [[["conv3_block1_1_conv", 0, 0, {}]]]}, {"module": "keras.layers", "class_name": "Activation", "config": {"name": "conv3_block1_1_relu", "trainable": false, "dtype": "float32", "activation": "relu"}, "registered_name": null, "build_config": {"input_shape": [null, 25, 25, 128]}, "name": "conv3_block1_1_relu", "inbound_nodes": [[["conv3_block1_1_bn", 0, 0, {}]]]}, {"module": "keras.layers", "class_name": "Conv2D", "config": {"name": "conv3_block1_2_conv", "trainable": false, "dtype": "float32", "filters": 32, "kernel_size": [3, 3], "strides": [1, 1], "padding": "same", "data_format": "channels_last", "dilation_rate": [1, 1], "groups": 1, "activation": "linear", "use_bias": false, "kernel_initializer": {"module": "keras.initializers", "class_name": "GlorotUniform", "config": {"seed": null}, "registered_name": null}, "bias_initializer": {"module": "keras.initializers", "class_name": "Zeros", "config": {}, "registered_name": null}, "kernel_regularizer": null, "bias_regularizer": null, "activity_regularizer": null, "kernel_constraint": null, "bias_constraint": null}, "registered_name": null, "build_config": {"input_shape": [null, 25, 25, 128]}, "name": "conv3_block1_2_conv", "inbound_nodes": [[["conv3_block1_1_relu", 0, 0, {}]]]}, {"module": "keras.layers", "class_name": "Concatenate", "config": {"name": "conv3_block1_concat", "trainable": false, "dtype": "float32", "axis": 3}, "registered_name": null, "build_config": {"input_shape": [[null, 25, 25, 128], [null, 25, 25, 32]]}, "name": "conv3_block1_concat", "inbound_nodes": [[["pool2_pool", 0, 0, {}], ["conv3_block1_2_conv", 0, 0, {}]]]}, {"module": "keras.layers", "class_name": "BatchNormalization", "config": {"name": "conv3_block2_0_bn", "trainable": false, "dtype": "float32", "axis": [3], "momentum": 0.99, "epsilon": 1.001e-05, "center": true, "scale": true, "beta_initializer": {"module": "keras.initializers", "class_name": "Zeros", "config": {}, "registered_name": null}, "gamma_initializer": {"module": "keras.initializers", "class_name": "Ones", "config": {}, "registered_name": null}, "moving_mean_initializer": {"module": "keras.initializers", "class_name": "Zeros", "config": {}, "registered_name": null}, "moving_variance_initializer": {"module": "keras.initializers", "class_name": "Ones", "config": {}, "registered_name": null}, "beta_regularizer": null, "gamma_regularizer": null, "beta_constraint": null, "gamma_constraint": null}, "registered_name": null, "build_config": {"input_shape": [null, 25, 25, 160]}, "name": "conv3_block2_0_bn", "inbound_nodes": [[["conv3_block1_concat", 0, 0, {}]]]}, {"module": "keras.layers", "class_name": "Activation", "config": {"name": "conv3_block2_0_relu", "trainable": false, "dtype": "float32", "activation": "relu"}, "registered_name": null, "build_config": {"input_shape": [null, 25, 25, 160]}, "name": "conv3_block2_0_relu", "inbound_nodes": [[["conv3_block2_0_bn", 0, 0, {}]]]}, {"module": "keras.layers", "class_name": "Conv2D", "config": {"name": "conv3_block2_1_conv", "trainable": false, "dtype": "float32", "filters": 128, "kernel_size": [1, 1], "strides": [1, 1], "padding": "valid", "data_format": "channels_last", "dilation_rate": [1, 1], "groups": 1, "activation": "linear", "use_bias": false, "kernel_initializer": {"module": "keras.initializers", "class_name": "GlorotUniform", "config": {"seed": null}, "registered_name": null}, "bias_initializer": {"module": "keras.initializers", "class_name": "Zeros", "config": {}, "registered_name": null}, "kernel_regularizer": null, "bias_regularizer": null, "activity_regularizer": null, "kernel_constraint": null, "bias_constraint": null}, "registered_name": null, "build_config": {"input_shape": [null, 25, 25, 160]}, "name": "conv3_block2_1_conv", "inbound_nodes": [[["conv3_block2_0_relu", 0, 0, {}]]]}, {"module": "keras.layers", "class_name": "BatchNormalization", "config": {"name": "conv3_block2_1_bn", "trainable": false, "dtype": "float32", "axis": [3], "momentum": 0.99, "epsilon": 1.001e-05, "center": true, "scale": true, "beta_initializer": {"module": "keras.initializers", "class_name": "Zeros", "config": {}, "registered_name": null}, "gamma_initializer": {"module": "keras.initializers", "class_name": "Ones", "config": {}, "registered_name": null}, "moving_mean_initializer": {"module": "keras.initializers", "class_name": "Zeros", "config": {}, "registered_name": null}, "moving_variance_initializer": {"module": "keras.initializers", "class_name": "Ones", "config": {}, "registered_name": null}, "beta_regularizer": null, "gamma_regularizer": null, "beta_constraint": null, "gamma_constraint": null}, "registered_name": null, "build_config": {"input_shape": [null, 25, 25, 128]}, "name": "conv3_block2_1_bn", "inbound_nodes": [[["conv3_block2_1_conv", 0, 0, {}]]]}, {"module": "keras.layers", "class_name": "Activation", "config": {"name": "conv3_block2_1_relu", "trainable": false, "dtype": "float32", "activation": "relu"}, "registered_name": null, "build_config": {"input_shape": [null, 25, 25, 128]}, "name": "conv3_block2_1_relu", "inbound_nodes": [[["conv3_block2_1_bn", 0, 0, {}]]]}, {"module": "keras.layers", "class_name": "Conv2D", "config": {"name": "conv3_block2_2_conv", "trainable": false, "dtype": "float32", "filters": 32, "kernel_size": [3, 3], "strides": [1, 1], "padding": "same", "data_format": "channels_last", "dilation_rate": [1, 1], "groups": 1, "activation": "linear", "use_bias": false, "kernel_initializer": {"module": "keras.initializers", "class_name": "GlorotUniform", "config": {"seed": null}, "registered_name": null}, "bias_initializer": {"module": "keras.initializers", "class_name": "Zeros", "config": {}, "registered_name": null}, "kernel_regularizer": null, "bias_regularizer": null, "activity_regularizer": null, "kernel_constraint": null, "bias_constraint": null}, "registered_name": null, "build_config": {"input_shape": [null, 25, 25, 128]}, "name": "conv3_block2_2_conv", "inbound_nodes": [[["conv3_block2_1_relu", 0, 0, {}]]]}, {"module": "keras.layers", "class_name": "Concatenate", "config": {"name": "conv3_block2_concat", "trainable": false, "dtype": "float32", "axis": 3}, "registered_name": null, "build_config": {"input_shape": [[null, 25, 25, 160], [null, 25, 25, 32]]}, "name": "conv3_block2_concat", "inbound_nodes": [[["conv3_block1_concat", 0, 0, {}], ["conv3_block2_2_conv", 0, 0, {}]]]}, {"module": "keras.layers", "class_name": "BatchNormalization", "config": {"name": "conv3_block3_0_bn", "trainable": false, "dtype": "float32", "axis": [3], "momentum": 0.99, "epsilon": 1.001e-05, "center": true, "scale": true, "beta_initializer": {"module": "keras.initializers", "class_name": "Zeros", "config": {}, "registered_name": null}, "gamma_initializer": {"module": "keras.initializers", "class_name": "Ones", "config": {}, "registered_name": null}, "moving_mean_initializer": {"module": "keras.initializers", "class_name": "Zeros", "config": {}, "registered_name": null}, "moving_variance_initializer": {"module": "keras.initializers", "class_name": "Ones", "config": {}, "registered_name": null}, "beta_regularizer": null, "gamma_regularizer": null, "beta_constraint": null, "gamma_constraint": null}, "registered_name": null, "build_config": {"input_shape": [null, 25, 25, 192]}, "name": "conv3_block3_0_bn", "inbound_nodes": [[["conv3_block2_concat", 0, 0, {}]]]}, {"module": "keras.layers", "class_name": "Activation", "config": {"name": "conv3_block3_0_relu", "trainable": false, "dtype": "float32", "activation": "relu"}, "registered_name": null, "build_config": {"input_shape": [null, 25, 25, 192]}, "name": "conv3_block3_0_relu", "inbound_nodes": [[["conv3_block3_0_bn", 0, 0, {}]]]}, {"module": "keras.layers", "class_name": "Conv2D", "config": {"name": "conv3_block3_1_conv", "trainable": false, "dtype": "float32", "filters": 128, "kernel_size": [1, 1], "strides": [1, 1], "padding": "valid", "data_format": "channels_last", "dilation_rate": [1, 1], "groups": 1, "activation": "linear", "use_bias": false, "kernel_initializer": {"module": "keras.initializers", "class_name": "GlorotUniform", "config": {"seed": null}, "registered_name": null}, "bias_initializer": {"module": "keras.initializers", "class_name": "Zeros", "config": {}, "registered_name": null}, "kernel_regularizer": null, "bias_regularizer": null, "activity_regularizer": null, "kernel_constraint": null, "bias_constraint": null}, "registered_name": null, "build_config": {"input_shape": [null, 25, 25, 192]}, "name": "conv3_block3_1_conv", "inbound_nodes": [[["conv3_block3_0_relu", 0, 0, {}]]]}, {"module": "keras.layers", "class_name": "BatchNormalization", "config": {"name": "conv3_block3_1_bn", "trainable": false, "dtype": "float32", "axis": [3], "momentum": 0.99, "epsilon": 1.001e-05, "center": true, "scale": true, "beta_initializer": {"module": "keras.initializers", "class_name": "Zeros", "config": {}, "registered_name": null}, "gamma_initializer": {"module": "keras.initializers", "class_name": "Ones", "config": {}, "registered_name": null}, "moving_mean_initializer": {"module": "keras.initializers", "class_name": "Zeros", "config": {}, "registered_name": null}, "moving_variance_initializer": {"module": "keras.initializers", "class_name": "Ones", "config": {}, "registered_name": null}, "beta_regularizer": null, "gamma_regularizer": null, "beta_constraint": null, "gamma_constraint": null}, "registered_name": null, "build_config": {"input_shape": [null, 25, 25, 128]}, "name": "conv3_block3_1_bn", "inbound_nodes": [[["conv3_block3_1_conv", 0, 0, {}]]]}, {"module": "keras.layers", "class_name": "Activation", "config": {"name": "conv3_block3_1_relu", "trainable": false, "dtype": "float32", "activation": "relu"}, "registered_name": null, "build_config": {"input_shape": [null, 25, 25, 128]}, "name": "conv3_block3_1_relu", "inbound_nodes": [[["conv3_block3_1_bn", 0, 0, {}]]]}, {"module": "keras.layers", "class_name": "Conv2D", "config": {"name": "conv3_block3_2_conv", "trainable": false, "dtype": "float32", "filters": 32, "kernel_size": [3, 3], "strides": [1, 1], "padding": "same", "data_format": "channels_last", "dilation_rate": [1, 1], "groups": 1, "activation": "linear", "use_bias": false, "kernel_initializer": {"module": "keras.initializers", "class_name": "GlorotUniform", "config": {"seed": null}, "registered_name": null}, "bias_initializer": {"module": "keras.initializers", "class_name": "Zeros", "config": {}, "registered_name": null}, "kernel_regularizer": null, "bias_regularizer": null, "activity_regularizer": null, "kernel_constraint": null, "bias_constraint": null}, "registered_name": null, "build_config": {"input_shape": [null, 25, 25, 128]}, "name": "conv3_block3_2_conv", "inbound_nodes": [[["conv3_block3_1_relu", 0, 0, {}]]]}, {"module": "keras.layers", "class_name": "Concatenate", "config": {"name": "conv3_block3_concat", "trainable": false, "dtype": "float32", "axis": 3}, "registered_name": null, "build_config": {"input_shape": [[null, 25, 25, 192], [null, 25, 25, 32]]}, "name": "conv3_block3_concat", "inbound_nodes": [[["conv3_block2_concat", 0, 0, {}], ["conv3_block3_2_conv", 0, 0, {}]]]}, {"module": "keras.layers", "class_name": "BatchNormalization", "config": {"name": "conv3_block4_0_bn", "trainable": false, "dtype": "float32", "axis": [3], "momentum": 0.99, "epsilon": 1.001e-05, "center": true, "scale": true, "beta_initializer": {"module": "keras.initializers", "class_name": "Zeros", "config": {}, "registered_name": null}, "gamma_initializer": {"module": "keras.initializers", "class_name": "Ones", "config": {}, "registered_name": null}, "moving_mean_initializer": {"module": "keras.initializers", "class_name": "Zeros", "config": {}, "registered_name": null}, "moving_variance_initializer": {"module": "keras.initializers", "class_name": "Ones", "config": {}, "registered_name": null}, "beta_regularizer": null, "gamma_regularizer": null, "beta_constraint": null, "gamma_constraint": null}, "registered_name": null, "build_config": {"input_shape": [null, 25, 25, 224]}, "name": "conv3_block4_0_bn", "inbound_nodes": [[["conv3_block3_concat", 0, 0, {}]]]}, {"module": "keras.layers", "class_name": "Activation", "config": {"name": "conv3_block4_0_relu", "trainable": false, "dtype": "float32", "activation": "relu"}, "registered_name": null, "build_config": {"input_shape": [null, 25, 25, 224]}, "name": "conv3_block4_0_relu", "inbound_nodes": [[["conv3_block4_0_bn", 0, 0, {}]]]}, {"module": "keras.layers", "class_name": "Conv2D", "config": {"name": "conv3_block4_1_conv", "trainable": false, "dtype": "float32", "filters": 128, "kernel_size": [1, 1], "strides": [1, 1], "padding": "valid", "data_format": "channels_last", "dilation_rate": [1, 1], "groups": 1, "activation": "linear", "use_bias": false, "kernel_initializer": {"module": "keras.initializers", "class_name": "GlorotUniform", "config": {"seed": null}, "registered_name": null}, "bias_initializer": {"module": "keras.initializers", "class_name": "Zeros", "config": {}, "registered_name": null}, "kernel_regularizer": null, "bias_regularizer": null, "activity_regularizer": null, "kernel_constraint": null, "bias_constraint": null}, "registered_name": null, "build_config": {"input_shape": [null, 25, 25, 224]}, "name": "conv3_block4_1_conv", "inbound_nodes": [[["conv3_block4_0_relu", 0, 0, {}]]]}, {"module": "keras.layers", "class_name": "BatchNormalization", "config": {"name": "conv3_block4_1_bn", "trainable": false, "dtype": "float32", "axis": [3], "momentum": 0.99, "epsilon": 1.001e-05, "center": true, "scale": true, "beta_initializer": {"module": "keras.initializers", "class_name": "Zeros", "config": {}, "registered_name": null}, "gamma_initializer": {"module": "keras.initializers", "class_name": "Ones", "config": {}, "registered_name": null}, "moving_mean_initializer": {"module": "keras.initializers", "class_name": "Zeros", "config": {}, "registered_name": null}, "moving_variance_initializer": {"module": "keras.initializers", "class_name": "Ones", "config": {}, "registered_name": null}, "beta_regularizer": null, "gamma_regularizer": null, "beta_constraint": null, "gamma_constraint": null}, "registered_name": null, "build_config": {"input_shape": [null, 25, 25, 128]}, "name": "conv3_block4_1_bn", "inbound_nodes": [[["conv3_block4_1_conv", 0, 0, {}]]]}, {"module": "keras.layers", "class_name": "Activation", "config": {"name": "conv3_block4_1_relu", "trainable": false, "dtype": "float32", "activation": "relu"}, "registered_name": null, "build_config": {"input_shape": [null, 25, 25, 128]}, "name": "conv3_block4_1_relu", "inbound_nodes": [[["conv3_block4_1_bn", 0, 0, {}]]]}, {"module": "keras.layers", "class_name": "Conv2D", "config": {"name": "conv3_block4_2_conv", "trainable": false, "dtype": "float32", "filters": 32, "kernel_size": [3, 3], "strides": [1, 1], "padding": "same", "data_format": "channels_last", "dilation_rate": [1, 1], "groups": 1, "activation": "linear", "use_bias": false, "kernel_initializer": {"module": "keras.initializers", "class_name": "GlorotUniform", "config": {"seed": null}, "registered_name": null}, "bias_initializer": {"module": "keras.initializers", "class_name": "Zeros", "config": {}, "registered_name": null}, "kernel_regularizer": null, "bias_regularizer": null, "activity_regularizer": null, "kernel_constraint": null, "bias_constraint": null}, "registered_name": null, "build_config": {"input_shape": [null, 25, 25, 128]}, "name": "conv3_block4_2_conv", "inbound_nodes": [[["conv3_block4_1_relu", 0, 0, {}]]]}, {"module": "keras.layers", "class_name": "Concatenate", "config": {"name": "conv3_block4_concat", "trainable": false, "dtype": "float32", "axis": 3}, "registered_name": null, "build_config": {"input_shape": [[null, 25, 25, 224], [null, 25, 25, 32]]}, "name": "conv3_block4_concat", "inbound_nodes": [[["conv3_block3_concat", 0, 0, {}], ["conv3_block4_2_conv", 0, 0, {}]]]}, {"module": "keras.layers", "class_name": "BatchNormalization", "config": {"name": "conv3_block5_0_bn", "trainable": false, "dtype": "float32", "axis": [3], "momentum": 0.99, "epsilon": 1.001e-05, "center": true, "scale": true, "beta_initializer": {"module": "keras.initializers", "class_name": "Zeros", "config": {}, "registered_name": null}, "gamma_initializer": {"module": "keras.initializers", "class_name": "Ones", "config": {}, "registered_name": null}, "moving_mean_initializer": {"module": "keras.initializers", "class_name": "Zeros", "config": {}, "registered_name": null}, "moving_variance_initializer": {"module": "keras.initializers", "class_name": "Ones", "config": {}, "registered_name": null}, "beta_regularizer": null, "gamma_regularizer": null, "beta_constraint": null, "gamma_constraint": null}, "registered_name": null, "build_config": {"input_shape": [null, 25, 25, 256]}, "name": "conv3_block5_0_bn", "inbound_nodes": [[["conv3_block4_concat", 0, 0, {}]]]}, {"module": "keras.layers", "class_name": "Activation", "config": {"name": "conv3_block5_0_relu", "trainable": false, "dtype": "float32", "activation": "relu"}, "registered_name": null, "build_config": {"input_shape": [null, 25, 25, 256]}, "name": "conv3_block5_0_relu", "inbound_nodes": [[["conv3_block5_0_bn", 0, 0, {}]]]}, {"module": "keras.layers", "class_name": "Conv2D", "config": {"name": "conv3_block5_1_conv", "trainable": false, "dtype": "float32", "filters": 128, "kernel_size": [1, 1], "strides": [1, 1], "padding": "valid", "data_format": "channels_last", "dilation_rate": [1, 1], "groups": 1, "activation": "linear", "use_bias": false, "kernel_initializer": {"module": "keras.initializers", "class_name": "GlorotUniform", "config": {"seed": null}, "registered_name": null}, "bias_initializer": {"module": "keras.initializers", "class_name": "Zeros", "config": {}, "registered_name": null}, "kernel_regularizer": null, "bias_regularizer": null, "activity_regularizer": null, "kernel_constraint": null, "bias_constraint": null}, "registered_name": null, "build_config": {"input_shape": [null, 25, 25, 256]}, "name": "conv3_block5_1_conv", "inbound_nodes": [[["conv3_block5_0_relu", 0, 0, {}]]]}, {"module": "keras.layers", "class_name": "BatchNormalization", "config": {"name": "conv3_block5_1_bn", "trainable": false, "dtype": "float32", "axis": [3], "momentum": 0.99, "epsilon": 1.001e-05, "center": true, "scale": true, "beta_initializer": {"module": "keras.initializers", "class_name": "Zeros", "config": {}, "registered_name": null}, "gamma_initializer": {"module": "keras.initializers", "class_name": "Ones", "config": {}, "registered_name": null}, "moving_mean_initializer": {"module": "keras.initializers", "class_name": "Zeros", "config": {}, "registered_name": null}, "moving_variance_initializer": {"module": "keras.initializers", "class_name": "Ones", "config": {}, "registered_name": null}, "beta_regularizer": null, "gamma_regularizer": null, "beta_constraint": null, "gamma_constraint": null}, "registered_name": null, "build_config": {"input_shape": [null, 25, 25, 128]}, "name": "conv3_block5_1_bn", "inbound_nodes": [[["conv3_block5_1_conv", 0, 0, {}]]]}, {"module": "keras.layers", "class_name": "Activation", "config": {"name": "conv3_block5_1_relu", "trainable": false, "dtype": "float32", "activation": "relu"}, "registered_name": null, "build_config": {"input_shape": [null, 25, 25, 128]}, "name": "conv3_block5_1_relu", "inbound_nodes": [[["conv3_block5_1_bn", 0, 0, {}]]]}, {"module": "keras.layers", "class_name": "Conv2D", "config": {"name": "conv3_block5_2_conv", "trainable": false, "dtype": "float32", "filters": 32, "kernel_size": [3, 3], "strides": [1, 1], "padding": "same", "data_format": "channels_last", "dilation_rate": [1, 1], "groups": 1, "activation": "linear", "use_bias": false, "kernel_initializer": {"module": "keras.initializers", "class_name": "GlorotUniform", "config": {"seed": null}, "registered_name": null}, "bias_initializer": {"module": "keras.initializers", "class_name": "Zeros", "config": {}, "registered_name": null}, "kernel_regularizer": null, "bias_regularizer": null, "activity_regularizer": null, "kernel_constraint": null, "bias_constraint": null}, "registered_name": null, "build_config": {"input_shape": [null, 25, 25, 128]}, "name": "conv3_block5_2_conv", "inbound_nodes": [[["conv3_block5_1_relu", 0, 0, {}]]]}, {"module": "keras.layers", "class_name": "Concatenate", "config": {"name": "conv3_block5_concat", "trainable": false, "dtype": "float32", "axis": 3}, "registered_name": null, "build_config": {"input_shape": [[null, 25, 25, 256], [null, 25, 25, 32]]}, "name": "conv3_block5_concat", "inbound_nodes": [[["conv3_block4_concat", 0, 0, {}], ["conv3_block5_2_conv", 0, 0, {}]]]}, {"module": "keras.layers", "class_name": "BatchNormalization", "config": {"name": "conv3_block6_0_bn", "trainable": false, "dtype": "float32", "axis": [3], "momentum": 0.99, "epsilon": 1.001e-05, "center": true, "scale": true, "beta_initializer": {"module": "keras.initializers", "class_name": "Zeros", "config": {}, "registered_name": null}, "gamma_initializer": {"module": "keras.initializers", "class_name": "Ones", "config": {}, "registered_name": null}, "moving_mean_initializer": {"module": "keras.initializers", "class_name": "Zeros", "config": {}, "registered_name": null}, "moving_variance_initializer": {"module": "keras.initializers", "class_name": "Ones", "config": {}, "registered_name": null}, "beta_regularizer": null, "gamma_regularizer": null, "beta_constraint": null, "gamma_constraint": null}, "registered_name": null, "build_config": {"input_shape": [null, 25, 25, 288]}, "name": "conv3_block6_0_bn", "inbound_nodes": [[["conv3_block5_concat", 0, 0, {}]]]}, {"module": "keras.layers", "class_name": "Activation", "config": {"name": "conv3_block6_0_relu", "trainable": false, "dtype": "float32", "activation": "relu"}, "registered_name": null, "build_config": {"input_shape": [null, 25, 25, 288]}, "name": "conv3_block6_0_relu", "inbound_nodes": [[["conv3_block6_0_bn", 0, 0, {}]]]}, {"module": "keras.layers", "class_name": "Conv2D", "config": {"name": "conv3_block6_1_conv", "trainable": false, "dtype": "float32", "filters": 128, "kernel_size": [1, 1], "strides": [1, 1], "padding": "valid", "data_format": "channels_last", "dilation_rate": [1, 1], "groups": 1, "activation": "linear", "use_bias": false, "kernel_initializer": {"module": "keras.initializers", "class_name": "GlorotUniform", "config": {"seed": null}, "registered_name": null}, "bias_initializer": {"module": "keras.initializers", "class_name": "Zeros", "config": {}, "registered_name": null}, "kernel_regularizer": null, "bias_regularizer": null, "activity_regularizer": null, "kernel_constraint": null, "bias_constraint": null}, "registered_name": null, "build_config": {"input_shape": [null, 25, 25, 288]}, "name": "conv3_block6_1_conv", "inbound_nodes": [[["conv3_block6_0_relu", 0, 0, {}]]]}, {"module": "keras.layers", "class_name": "BatchNormalization", "config": {"name": "conv3_block6_1_bn", "trainable": false, "dtype": "float32", "axis": [3], "momentum": 0.99, "epsilon": 1.001e-05, "center": true, "scale": true, "beta_initializer": {"module": "keras.initializers", "class_name": "Zeros", "config": {}, "registered_name": null}, "gamma_initializer": {"module": "keras.initializers", "class_name": "Ones", "config": {}, "registered_name": null}, "moving_mean_initializer": {"module": "keras.initializers", "class_name": "Zeros", "config": {}, "registered_name": null}, "moving_variance_initializer": {"module": "keras.initializers", "class_name": "Ones", "config": {}, "registered_name": null}, "beta_regularizer": null, "gamma_regularizer": null, "beta_constraint": null, "gamma_constraint": null}, "registered_name": null, "build_config": {"input_shape": [null, 25, 25, 128]}, "name": "conv3_block6_1_bn", "inbound_nodes": [[["conv3_block6_1_conv", 0, 0, {}]]]}, {"module": "keras.layers", "class_name": "Activation", "config": {"name": "conv3_block6_1_relu", "trainable": false, "dtype": "float32", "activation": "relu"}, "registered_name": null, "build_config": {"input_shape": [null, 25, 25, 128]}, "name": "conv3_block6_1_relu", "inbound_nodes": [[["conv3_block6_1_bn", 0, 0, {}]]]}, {"module": "keras.layers", "class_name": "Conv2D", "config": {"name": "conv3_block6_2_conv", "trainable": false, "dtype": "float32", "filters": 32, "kernel_size": [3, 3], "strides": [1, 1], "padding": "same", "data_format": "channels_last", "dilation_rate": [1, 1], "groups": 1, "activation": "linear", "use_bias": false, "kernel_initializer": {"module": "keras.initializers", "class_name": "GlorotUniform", "config": {"seed": null}, "registered_name": null}, "bias_initializer": {"module": "keras.initializers", "class_name": "Zeros", "config": {}, "registered_name": null}, "kernel_regularizer": null, "bias_regularizer": null, "activity_regularizer": null, "kernel_constraint": null, "bias_constraint": null}, "registered_name": null, "build_config": {"input_shape": [null, 25, 25, 128]}, "name": "conv3_block6_2_conv", "inbound_nodes": [[["conv3_block6_1_relu", 0, 0, {}]]]}, {"module": "keras.layers", "class_name": "Concatenate", "config": {"name": "conv3_block6_concat", "trainable": false, "dtype": "float32", "axis": 3}, "registered_name": null, "build_config": {"input_shape": [[null, 25, 25, 288], [null, 25, 25, 32]]}, "name": "conv3_block6_concat", "inbound_nodes": [[["conv3_block5_concat", 0, 0, {}], ["conv3_block6_2_conv", 0, 0, {}]]]}, {"module": "keras.layers", "class_name": "BatchNormalization", "config": {"name": "conv3_block7_0_bn", "trainable": false, "dtype": "float32", "axis": [3], "momentum": 0.99, "epsilon": 1.001e-05, "center": true, "scale": true, "beta_initializer": {"module": "keras.initializers", "class_name": "Zeros", "config": {}, "registered_name": null}, "gamma_initializer": {"module": "keras.initializers", "class_name": "Ones", "config": {}, "registered_name": null}, "moving_mean_initializer": {"module": "keras.initializers", "class_name": "Zeros", "config": {}, "registered_name": null}, "moving_variance_initializer": {"module": "keras.initializers", "class_name": "Ones", "config": {}, "registered_name": null}, "beta_regularizer": null, "gamma_regularizer": null, "beta_constraint": null, "gamma_constraint": null}, "registered_name": null, "build_config": {"input_shape": [null, 25, 25, 320]}, "name": "conv3_block7_0_bn", "inbound_nodes": [[["conv3_block6_concat", 0, 0, {}]]]}, {"module": "keras.layers", "class_name": "Activation", "config": {"name": "conv3_block7_0_relu", "trainable": false, "dtype": "float32", "activation": "relu"}, "registered_name": null, "build_config": {"input_shape": [null, 25, 25, 320]}, "name": "conv3_block7_0_relu", "inbound_nodes": [[["conv3_block7_0_bn", 0, 0, {}]]]}, {"module": "keras.layers", "class_name": "Conv2D", "config": {"name": "conv3_block7_1_conv", "trainable": false, "dtype": "float32", "filters": 128, "kernel_size": [1, 1], "strides": [1, 1], "padding": "valid", "data_format": "channels_last", "dilation_rate": [1, 1], "groups": 1, "activation": "linear", "use_bias": false, "kernel_initializer": {"module": "keras.initializers", "class_name": "GlorotUniform", "config": {"seed": null}, "registered_name": null}, "bias_initializer": {"module": "keras.initializers", "class_name": "Zeros", "config": {}, "registered_name": null}, "kernel_regularizer": null, "bias_regularizer": null, "activity_regularizer": null, "kernel_constraint": null, "bias_constraint": null}, "registered_name": null, "build_config": {"input_shape": [null, 25, 25, 320]}, "name": "conv3_block7_1_conv", "inbound_nodes": [[["conv3_block7_0_relu", 0, 0, {}]]]}, {"module": "keras.layers", "class_name": "BatchNormalization", "config": {"name": "conv3_block7_1_bn", "trainable": false, "dtype": "float32", "axis": [3], "momentum": 0.99, "epsilon": 1.001e-05, "center": true, "scale": true, "beta_initializer": {"module": "keras.initializers", "class_name": "Zeros", "config": {}, "registered_name": null}, "gamma_initializer": {"module": "keras.initializers", "class_name": "Ones", "config": {}, "registered_name": null}, "moving_mean_initializer": {"module": "keras.initializers", "class_name": "Zeros", "config": {}, "registered_name": null}, "moving_variance_initializer": {"module": "keras.initializers", "class_name": "Ones", "config": {}, "registered_name": null}, "beta_regularizer": null, "gamma_regularizer": null, "beta_constraint": null, "gamma_constraint": null}, "registered_name": null, "build_config": {"input_shape": [null, 25, 25, 128]}, "name": "conv3_block7_1_bn", "inbound_nodes": [[["conv3_block7_1_conv", 0, 0, {}]]]}, {"module": "keras.layers", "class_name": "Activation", "config": {"name": "conv3_block7_1_relu", "trainable": false, "dtype": "float32", "activation": "relu"}, "registered_name": null, "build_config": {"input_shape": [null, 25, 25, 128]}, "name": "conv3_block7_1_relu", "inbound_nodes": [[["conv3_block7_1_bn", 0, 0, {}]]]}, {"module": "keras.layers", "class_name": "Conv2D", "config": {"name": "conv3_block7_2_conv", "trainable": false, "dtype": "float32", "filters": 32, "kernel_size": [3, 3], "strides": [1, 1], "padding": "same", "data_format": "channels_last", "dilation_rate": [1, 1], "groups": 1, "activation": "linear", "use_bias": false, "kernel_initializer": {"module": "keras.initializers", "class_name": "GlorotUniform", "config": {"seed": null}, "registered_name": null}, "bias_initializer": {"module": "keras.initializers", "class_name": "Zeros", "config": {}, "registered_name": null}, "kernel_regularizer": null, "bias_regularizer": null, "activity_regularizer": null, "kernel_constraint": null, "bias_constraint": null}, "registered_name": null, "build_config": {"input_shape": [null, 25, 25, 128]}, "name": "conv3_block7_2_conv", "inbound_nodes": [[["conv3_block7_1_relu", 0, 0, {}]]]}, {"module": "keras.layers", "class_name": "Concatenate", "config": {"name": "conv3_block7_concat", "trainable": false, "dtype": "float32", "axis": 3}, "registered_name": null, "build_config": {"input_shape": [[null, 25, 25, 320], [null, 25, 25, 32]]}, "name": "conv3_block7_concat", "inbound_nodes": [[["conv3_block6_concat", 0, 0, {}], ["conv3_block7_2_conv", 0, 0, {}]]]}, {"module": "keras.layers", "class_name": "BatchNormalization", "config": {"name": "conv3_block8_0_bn", "trainable": false, "dtype": "float32", "axis": [3], "momentum": 0.99, "epsilon": 1.001e-05, "center": true, "scale": true, "beta_initializer": {"module": "keras.initializers", "class_name": "Zeros", "config": {}, "registered_name": null}, "gamma_initializer": {"module": "keras.initializers", "class_name": "Ones", "config": {}, "registered_name": null}, "moving_mean_initializer": {"module": "keras.initializers", "class_name": "Zeros", "config": {}, "registered_name": null}, "moving_variance_initializer": {"module": "keras.initializers", "class_name": "Ones", "config": {}, "registered_name": null}, "beta_regularizer": null, "gamma_regularizer": null, "beta_constraint": null, "gamma_constraint": null}, "registered_name": null, "build_config": {"input_shape": [null, 25, 25, 352]}, "name": "conv3_block8_0_bn", "inbound_nodes": [[["conv3_block7_concat", 0, 0, {}]]]}, {"module": "keras.layers", "class_name": "Activation", "config": {"name": "conv3_block8_0_relu", "trainable": false, "dtype": "float32", "activation": "relu"}, "registered_name": null, "build_config": {"input_shape": [null, 25, 25, 352]}, "name": "conv3_block8_0_relu", "inbound_nodes": [[["conv3_block8_0_bn", 0, 0, {}]]]}, {"module": "keras.layers", "class_name": "Conv2D", "config": {"name": "conv3_block8_1_conv", "trainable": false, "dtype": "float32", "filters": 128, "kernel_size": [1, 1], "strides": [1, 1], "padding": "valid", "data_format": "channels_last", "dilation_rate": [1, 1], "groups": 1, "activation": "linear", "use_bias": false, "kernel_initializer": {"module": "keras.initializers", "class_name": "GlorotUniform", "config": {"seed": null}, "registered_name": null}, "bias_initializer": {"module": "keras.initializers", "class_name": "Zeros", "config": {}, "registered_name": null}, "kernel_regularizer": null, "bias_regularizer": null, "activity_regularizer": null, "kernel_constraint": null, "bias_constraint": null}, "registered_name": null, "build_config": {"input_shape": [null, 25, 25, 352]}, "name": "conv3_block8_1_conv", "inbound_nodes": [[["conv3_block8_0_relu", 0, 0, {}]]]}, {"module": "keras.layers", "class_name": "BatchNormalization", "config": {"name": "conv3_block8_1_bn", "trainable": false, "dtype": "float32", "axis": [3], "momentum": 0.99, "epsilon": 1.001e-05, "center": true, "scale": true, "beta_initializer": {"module": "keras.initializers", "class_name": "Zeros", "config": {}, "registered_name": null}, "gamma_initializer": {"module": "keras.initializers", "class_name": "Ones", "config": {}, "registered_name": null}, "moving_mean_initializer": {"module": "keras.initializers", "class_name": "Zeros", "config": {}, "registered_name": null}, "moving_variance_initializer": {"module": "keras.initializers", "class_name": "Ones", "config": {}, "registered_name": null}, "beta_regularizer": null, "gamma_regularizer": null, "beta_constraint": null, "gamma_constraint": null}, "registered_name": null, "build_config": {"input_shape": [null, 25, 25, 128]}, "name": "conv3_block8_1_bn", "inbound_nodes": [[["conv3_block8_1_conv", 0, 0, {}]]]}, {"module": "keras.layers", "class_name": "Activation", "config": {"name": "conv3_block8_1_relu", "trainable": false, "dtype": "float32", "activation": "relu"}, "registered_name": null, "build_config": {"input_shape": [null, 25, 25, 128]}, "name": "conv3_block8_1_relu", "inbound_nodes": [[["conv3_block8_1_bn", 0, 0, {}]]]}, {"module": "keras.layers", "class_name": "Conv2D", "config": {"name": "conv3_block8_2_conv", "trainable": false, "dtype": "float32", "filters": 32, "kernel_size": [3, 3], "strides": [1, 1], "padding": "same", "data_format": "channels_last", "dilation_rate": [1, 1], "groups": 1, "activation": "linear", "use_bias": false, "kernel_initializer": {"module": "keras.initializers", "class_name": "GlorotUniform", "config": {"seed": null}, "registered_name": null}, "bias_initializer": {"module": "keras.initializers", "class_name": "Zeros", "config": {}, "registered_name": null}, "kernel_regularizer": null, "bias_regularizer": null, "activity_regularizer": null, "kernel_constraint": null, "bias_constraint": null}, "registered_name": null, "build_config": {"input_shape": [null, 25, 25, 128]}, "name": "conv3_block8_2_conv", "inbound_nodes": [[["conv3_block8_1_relu", 0, 0, {}]]]}, {"module": "keras.layers", "class_name": "Concatenate", "config": {"name": "conv3_block8_concat", "trainable": false, "dtype": "float32", "axis": 3}, "registered_name": null, "build_config": {"input_shape": [[null, 25, 25, 352], [null, 25, 25, 32]]}, "name": "conv3_block8_concat", "inbound_nodes": [[["conv3_block7_concat", 0, 0, {}], ["conv3_block8_2_conv", 0, 0, {}]]]}, {"module": "keras.layers", "class_name": "BatchNormalization", "config": {"name": "conv3_block9_0_bn", "trainable": false, "dtype": "float32", "axis": [3], "momentum": 0.99, "epsilon": 1.001e-05, "center": true, "scale": true, "beta_initializer": {"module": "keras.initializers", "class_name": "Zeros", "config": {}, "registered_name": null}, "gamma_initializer": {"module": "keras.initializers", "class_name": "Ones", "config": {}, "registered_name": null}, "moving_mean_initializer": {"module": "keras.initializers", "class_name": "Zeros", "config": {}, "registered_name": null}, "moving_variance_initializer": {"module": "keras.initializers", "class_name": "Ones", "config": {}, "registered_name": null}, "beta_regularizer": null, "gamma_regularizer": null, "beta_constraint": null, "gamma_constraint": null}, "registered_name": null, "build_config": {"input_shape": [null, 25, 25, 384]}, "name": "conv3_block9_0_bn", "inbound_nodes": [[["conv3_block8_concat", 0, 0, {}]]]}, {"module": "keras.layers", "class_name": "Activation", "config": {"name": "conv3_block9_0_relu", "trainable": false, "dtype": "float32", "activation": "relu"}, "registered_name": null, "build_config": {"input_shape": [null, 25, 25, 384]}, "name": "conv3_block9_0_relu", "inbound_nodes": [[["conv3_block9_0_bn", 0, 0, {}]]]}, {"module": "keras.layers", "class_name": "Conv2D", "config": {"name": "conv3_block9_1_conv", "trainable": false, "dtype": "float32", "filters": 128, "kernel_size": [1, 1], "strides": [1, 1], "padding": "valid", "data_format": "channels_last", "dilation_rate": [1, 1], "groups": 1, "activation": "linear", "use_bias": false, "kernel_initializer": {"module": "keras.initializers", "class_name": "GlorotUniform", "config": {"seed": null}, "registered_name": null}, "bias_initializer": {"module": "keras.initializers", "class_name": "Zeros", "config": {}, "registered_name": null}, "kernel_regularizer": null, "bias_regularizer": null, "activity_regularizer": null, "kernel_constraint": null, "bias_constraint": null}, "registered_name": null, "build_config": {"input_shape": [null, 25, 25, 384]}, "name": "conv3_block9_1_conv", "inbound_nodes": [[["conv3_block9_0_relu", 0, 0, {}]]]}, {"module": "keras.layers", "class_name": "BatchNormalization", "config": {"name": "conv3_block9_1_bn", "trainable": false, "dtype": "float32", "axis": [3], "momentum": 0.99, "epsilon": 1.001e-05, "center": true, "scale": true, "beta_initializer": {"module": "keras.initializers", "class_name": "Zeros", "config": {}, "registered_name": null}, "gamma_initializer": {"module": "keras.initializers", "class_name": "Ones", "config": {}, "registered_name": null}, "moving_mean_initializer": {"module": "keras.initializers", "class_name": "Zeros", "config": {}, "registered_name": null}, "moving_variance_initializer": {"module": "keras.initializers", "class_name": "Ones", "config": {}, "registered_name": null}, "beta_regularizer": null, "gamma_regularizer": null, "beta_constraint": null, "gamma_constraint": null}, "registered_name": null, "build_config": {"input_shape": [null, 25, 25, 128]}, "name": "conv3_block9_1_bn", "inbound_nodes": [[["conv3_block9_1_conv", 0, 0, {}]]]}, {"module": "keras.layers", "class_name": "Activation", "config": {"name": "conv3_block9_1_relu", "trainable": false, "dtype": "float32", "activation": "relu"}, "registered_name": null, "build_config": {"input_shape": [null, 25, 25, 128]}, "name": "conv3_block9_1_relu", "inbound_nodes": [[["conv3_block9_1_bn", 0, 0, {}]]]}, {"module": "keras.layers", "class_name": "Conv2D", "config": {"name": "conv3_block9_2_conv", "trainable": false, "dtype": "float32", "filters": 32, "kernel_size": [3, 3], "strides": [1, 1], "padding": "same", "data_format": "channels_last", "dilation_rate": [1, 1], "groups": 1, "activation": "linear", "use_bias": false, "kernel_initializer": {"module": "keras.initializers", "class_name": "GlorotUniform", "config": {"seed": null}, "registered_name": null}, "bias_initializer": {"module": "keras.initializers", "class_name": "Zeros", "config": {}, "registered_name": null}, "kernel_regularizer": null, "bias_regularizer": null, "activity_regularizer": null, "kernel_constraint": null, "bias_constraint": null}, "registered_name": null, "build_config": {"input_shape": [null, 25, 25, 128]}, "name": "conv3_block9_2_conv", "inbound_nodes": [[["conv3_block9_1_relu", 0, 0, {}]]]}, {"module": "keras.layers", "class_name": "Concatenate", "config": {"name": "conv3_block9_concat", "trainable": false, "dtype": "float32", "axis": 3}, "registered_name": null, "build_config": {"input_shape": [[null, 25, 25, 384], [null, 25, 25, 32]]}, "name": "conv3_block9_concat", "inbound_nodes": [[["conv3_block8_concat", 0, 0, {}], ["conv3_block9_2_conv", 0, 0, {}]]]}, {"module": "keras.layers", "class_name": "BatchNormalization", "config": {"name": "conv3_block10_0_bn", "trainable": false, "dtype": "float32", "axis": [3], "momentum": 0.99, "epsilon": 1.001e-05, "center": true, "scale": true, "beta_initializer": {"module": "keras.initializers", "class_name": "Zeros", "config": {}, "registered_name": null}, "gamma_initializer": {"module": "keras.initializers", "class_name": "Ones", "config": {}, "registered_name": null}, "moving_mean_initializer": {"module": "keras.initializers", "class_name": "Zeros", "config": {}, "registered_name": null}, "moving_variance_initializer": {"module": "keras.initializers", "class_name": "Ones", "config": {}, "registered_name": null}, "beta_regularizer": null, "gamma_regularizer": null, "beta_constraint": null, "gamma_constraint": null}, "registered_name": null, "build_config": {"input_shape": [null, 25, 25, 416]}, "name": "conv3_block10_0_bn", "inbound_nodes": [[["conv3_block9_concat", 0, 0, {}]]]}, {"module": "keras.layers", "class_name": "Activation", "config": {"name": "conv3_block10_0_relu", "trainable": false, "dtype": "float32", "activation": "relu"}, "registered_name": null, "build_config": {"input_shape": [null, 25, 25, 416]}, "name": "conv3_block10_0_relu", "inbound_nodes": [[["conv3_block10_0_bn", 0, 0, {}]]]}, {"module": "keras.layers", "class_name": "Conv2D", "config": {"name": "conv3_block10_1_conv", "trainable": false, "dtype": "float32", "filters": 128, "kernel_size": [1, 1], "strides": [1, 1], "padding": "valid", "data_format": "channels_last", "dilation_rate": [1, 1], "groups": 1, "activation": "linear", "use_bias": false, "kernel_initializer": {"module": "keras.initializers", "class_name": "GlorotUniform", "config": {"seed": null}, "registered_name": null}, "bias_initializer": {"module": "keras.initializers", "class_name": "Zeros", "config": {}, "registered_name": null}, "kernel_regularizer": null, "bias_regularizer": null, "activity_regularizer": null, "kernel_constraint": null, "bias_constraint": null}, "registered_name": null, "build_config": {"input_shape": [null, 25, 25, 416]}, "name": "conv3_block10_1_conv", "inbound_nodes": [[["conv3_block10_0_relu", 0, 0, {}]]]}, {"module": "keras.layers", "class_name": "BatchNormalization", "config": {"name": "conv3_block10_1_bn", "trainable": false, "dtype": "float32", "axis": [3], "momentum": 0.99, "epsilon": 1.001e-05, "center": true, "scale": true, "beta_initializer": {"module": "keras.initializers", "class_name": "Zeros", "config": {}, "registered_name": null}, "gamma_initializer": {"module": "keras.initializers", "class_name": "Ones", "config": {}, "registered_name": null}, "moving_mean_initializer": {"module": "keras.initializers", "class_name": "Zeros", "config": {}, "registered_name": null}, "moving_variance_initializer": {"module": "keras.initializers", "class_name": "Ones", "config": {}, "registered_name": null}, "beta_regularizer": null, "gamma_regularizer": null, "beta_constraint": null, "gamma_constraint": null}, "registered_name": null, "build_config": {"input_shape": [null, 25, 25, 128]}, "name": "conv3_block10_1_bn", "inbound_nodes": [[["conv3_block10_1_conv", 0, 0, {}]]]}, {"module": "keras.layers", "class_name": "Activation", "config": {"name": "conv3_block10_1_relu", "trainable": false, "dtype": "float32", "activation": "relu"}, "registered_name": null, "build_config": {"input_shape": [null, 25, 25, 128]}, "name": "conv3_block10_1_relu", "inbound_nodes": [[["conv3_block10_1_bn", 0, 0, {}]]]}, {"module": "keras.layers", "class_name": "Conv2D", "config": {"name": "conv3_block10_2_conv", "trainable": false, "dtype": "float32", "filters": 32, "kernel_size": [3, 3], "strides": [1, 1], "padding": "same", "data_format": "channels_last", "dilation_rate": [1, 1], "groups": 1, "activation": "linear", "use_bias": false, "kernel_initializer": {"module": "keras.initializers", "class_name": "GlorotUniform", "config": {"seed": null}, "registered_name": null}, "bias_initializer": {"module": "keras.initializers", "class_name": "Zeros", "config": {}, "registered_name": null}, "kernel_regularizer": null, "bias_regularizer": null, "activity_regularizer": null, "kernel_constraint": null, "bias_constraint": null}, "registered_name": null, "build_config": {"input_shape": [null, 25, 25, 128]}, "name": "conv3_block10_2_conv", "inbound_nodes": [[["conv3_block10_1_relu", 0, 0, {}]]]}, {"module": "keras.layers", "class_name": "Concatenate", "config": {"name": "conv3_block10_concat", "trainable": false, "dtype": "float32", "axis": 3}, "registered_name": null, "build_config": {"input_shape": [[null, 25, 25, 416], [null, 25, 25, 32]]}, "name": "conv3_block10_concat", "inbound_nodes": [[["conv3_block9_concat", 0, 0, {}], ["conv3_block10_2_conv", 0, 0, {}]]]}, {"module": "keras.layers", "class_name": "BatchNormalization", "config": {"name": "conv3_block11_0_bn", "trainable": false, "dtype": "float32", "axis": [3], "momentum": 0.99, "epsilon": 1.001e-05, "center": true, "scale": true, "beta_initializer": {"module": "keras.initializers", "class_name": "Zeros", "config": {}, "registered_name": null}, "gamma_initializer": {"module": "keras.initializers", "class_name": "Ones", "config": {}, "registered_name": null}, "moving_mean_initializer": {"module": "keras.initializers", "class_name": "Zeros", "config": {}, "registered_name": null}, "moving_variance_initializer": {"module": "keras.initializers", "class_name": "Ones", "config": {}, "registered_name": null}, "beta_regularizer": null, "gamma_regularizer": null, "beta_constraint": null, "gamma_constraint": null}, "registered_name": null, "build_config": {"input_shape": [null, 25, 25, 448]}, "name": "conv3_block11_0_bn", "inbound_nodes": [[["conv3_block10_concat", 0, 0, {}]]]}, {"module": "keras.layers", "class_name": "Activation", "config": {"name": "conv3_block11_0_relu", "trainable": false, "dtype": "float32", "activation": "relu"}, "registered_name": null, "build_config": {"input_shape": [null, 25, 25, 448]}, "name": "conv3_block11_0_relu", "inbound_nodes": [[["conv3_block11_0_bn", 0, 0, {}]]]}, {"module": "keras.layers", "class_name": "Conv2D", "config": {"name": "conv3_block11_1_conv", "trainable": false, "dtype": "float32", "filters": 128, "kernel_size": [1, 1], "strides": [1, 1], "padding": "valid", "data_format": "channels_last", "dilation_rate": [1, 1], "groups": 1, "activation": "linear", "use_bias": false, "kernel_initializer": {"module": "keras.initializers", "class_name": "GlorotUniform", "config": {"seed": null}, "registered_name": null}, "bias_initializer": {"module": "keras.initializers", "class_name": "Zeros", "config": {}, "registered_name": null}, "kernel_regularizer": null, "bias_regularizer": null, "activity_regularizer": null, "kernel_constraint": null, "bias_constraint": null}, "registered_name": null, "build_config": {"input_shape": [null, 25, 25, 448]}, "name": "conv3_block11_1_conv", "inbound_nodes": [[["conv3_block11_0_relu", 0, 0, {}]]]}, {"module": "keras.layers", "class_name": "BatchNormalization", "config": {"name": "conv3_block11_1_bn", "trainable": false, "dtype": "float32", "axis": [3], "momentum": 0.99, "epsilon": 1.001e-05, "center": true, "scale": true, "beta_initializer": {"module": "keras.initializers", "class_name": "Zeros", "config": {}, "registered_name": null}, "gamma_initializer": {"module": "keras.initializers", "class_name": "Ones", "config": {}, "registered_name": null}, "moving_mean_initializer": {"module": "keras.initializers", "class_name": "Zeros", "config": {}, "registered_name": null}, "moving_variance_initializer": {"module": "keras.initializers", "class_name": "Ones", "config": {}, "registered_name": null}, "beta_regularizer": null, "gamma_regularizer": null, "beta_constraint": null, "gamma_constraint": null}, "registered_name": null, "build_config": {"input_shape": [null, 25, 25, 128]}, "name": "conv3_block11_1_bn", "inbound_nodes": [[["conv3_block11_1_conv", 0, 0, {}]]]}, {"module": "keras.layers", "class_name": "Activation", "config": {"name": "conv3_block11_1_relu", "trainable": false, "dtype": "float32", "activation": "relu"}, "registered_name": null, "build_config": {"input_shape": [null, 25, 25, 128]}, "name": "conv3_block11_1_relu", "inbound_nodes": [[["conv3_block11_1_bn", 0, 0, {}]]]}, {"module": "keras.layers", "class_name": "Conv2D", "config": {"name": "conv3_block11_2_conv", "trainable": false, "dtype": "float32", "filters": 32, "kernel_size": [3, 3], "strides": [1, 1], "padding": "same", "data_format": "channels_last", "dilation_rate": [1, 1], "groups": 1, "activation": "linear", "use_bias": false, "kernel_initializer": {"module": "keras.initializers", "class_name": "GlorotUniform", "config": {"seed": null}, "registered_name": null}, "bias_initializer": {"module": "keras.initializers", "class_name": "Zeros", "config": {}, "registered_name": null}, "kernel_regularizer": null, "bias_regularizer": null, "activity_regularizer": null, "kernel_constraint": null, "bias_constraint": null}, "registered_name": null, "build_config": {"input_shape": [null, 25, 25, 128]}, "name": "conv3_block11_2_conv", "inbound_nodes": [[["conv3_block11_1_relu", 0, 0, {}]]]}, {"module": "keras.layers", "class_name": "Concatenate", "config": {"name": "conv3_block11_concat", "trainable": false, "dtype": "float32", "axis": 3}, "registered_name": null, "build_config": {"input_shape": [[null, 25, 25, 448], [null, 25, 25, 32]]}, "name": "conv3_block11_concat", "inbound_nodes": [[["conv3_block10_concat", 0, 0, {}], ["conv3_block11_2_conv", 0, 0, {}]]]}, {"module": "keras.layers", "class_name": "BatchNormalization", "config": {"name": "conv3_block12_0_bn", "trainable": false, "dtype": "float32", "axis": [3], "momentum": 0.99, "epsilon": 1.001e-05, "center": true, "scale": true, "beta_initializer": {"module": "keras.initializers", "class_name": "Zeros", "config": {}, "registered_name": null}, "gamma_initializer": {"module": "keras.initializers", "class_name": "Ones", "config": {}, "registered_name": null}, "moving_mean_initializer": {"module": "keras.initializers", "class_name": "Zeros", "config": {}, "registered_name": null}, "moving_variance_initializer": {"module": "keras.initializers", "class_name": "Ones", "config": {}, "registered_name": null}, "beta_regularizer": null, "gamma_regularizer": null, "beta_constraint": null, "gamma_constraint": null}, "registered_name": null, "build_config": {"input_shape": [null, 25, 25, 480]}, "name": "conv3_block12_0_bn", "inbound_nodes": [[["conv3_block11_concat", 0, 0, {}]]]}, {"module": "keras.layers", "class_name": "Activation", "config": {"name": "conv3_block12_0_relu", "trainable": false, "dtype": "float32", "activation": "relu"}, "registered_name": null, "build_config": {"input_shape": [null, 25, 25, 480]}, "name": "conv3_block12_0_relu", "inbound_nodes": [[["conv3_block12_0_bn", 0, 0, {}]]]}, {"module": "keras.layers", "class_name": "Conv2D", "config": {"name": "conv3_block12_1_conv", "trainable": false, "dtype": "float32", "filters": 128, "kernel_size": [1, 1], "strides": [1, 1], "padding": "valid", "data_format": "channels_last", "dilation_rate": [1, 1], "groups": 1, "activation": "linear", "use_bias": false, "kernel_initializer": {"module": "keras.initializers", "class_name": "GlorotUniform", "config": {"seed": null}, "registered_name": null}, "bias_initializer": {"module": "keras.initializers", "class_name": "Zeros", "config": {}, "registered_name": null}, "kernel_regularizer": null, "bias_regularizer": null, "activity_regularizer": null, "kernel_constraint": null, "bias_constraint": null}, "registered_name": null, "build_config": {"input_shape": [null, 25, 25, 480]}, "name": "conv3_block12_1_conv", "inbound_nodes": [[["conv3_block12_0_relu", 0, 0, {}]]]}, {"module": "keras.layers", "class_name": "BatchNormalization", "config": {"name": "conv3_block12_1_bn", "trainable": false, "dtype": "float32", "axis": [3], "momentum": 0.99, "epsilon": 1.001e-05, "center": true, "scale": true, "beta_initializer": {"module": "keras.initializers", "class_name": "Zeros", "config": {}, "registered_name": null}, "gamma_initializer": {"module": "keras.initializers", "class_name": "Ones", "config": {}, "registered_name": null}, "moving_mean_initializer": {"module": "keras.initializers", "class_name": "Zeros", "config": {}, "registered_name": null}, "moving_variance_initializer": {"module": "keras.initializers", "class_name": "Ones", "config": {}, "registered_name": null}, "beta_regularizer": null, "gamma_regularizer": null, "beta_constraint": null, "gamma_constraint": null}, "registered_name": null, "build_config": {"input_shape": [null, 25, 25, 128]}, "name": "conv3_block12_1_bn", "inbound_nodes": [[["conv3_block12_1_conv", 0, 0, {}]]]}, {"module": "keras.layers", "class_name": "Activation", "config": {"name": "conv3_block12_1_relu", "trainable": false, "dtype": "float32", "activation": "relu"}, "registered_name": null, "build_config": {"input_shape": [null, 25, 25, 128]}, "name": "conv3_block12_1_relu", "inbound_nodes": [[["conv3_block12_1_bn", 0, 0, {}]]]}, {"module": "keras.layers", "class_name": "Conv2D", "config": {"name": "conv3_block12_2_conv", "trainable": false, "dtype": "float32", "filters": 32, "kernel_size": [3, 3], "strides": [1, 1], "padding": "same", "data_format": "channels_last", "dilation_rate": [1, 1], "groups": 1, "activation": "linear", "use_bias": false, "kernel_initializer": {"module": "keras.initializers", "class_name": "GlorotUniform", "config": {"seed": null}, "registered_name": null}, "bias_initializer": {"module": "keras.initializers", "class_name": "Zeros", "config": {}, "registered_name": null}, "kernel_regularizer": null, "bias_regularizer": null, "activity_regularizer": null, "kernel_constraint": null, "bias_constraint": null}, "registered_name": null, "build_config": {"input_shape": [null, 25, 25, 128]}, "name": "conv3_block12_2_conv", "inbound_nodes": [[["conv3_block12_1_relu", 0, 0, {}]]]}, {"module": "keras.layers", "class_name": "Concatenate", "config": {"name": "conv3_block12_concat", "trainable": false, "dtype": "float32", "axis": 3}, "registered_name": null, "build_config": {"input_shape": [[null, 25, 25, 480], [null, 25, 25, 32]]}, "name": "conv3_block12_concat", "inbound_nodes": [[["conv3_block11_concat", 0, 0, {}], ["conv3_block12_2_conv", 0, 0, {}]]]}, {"module": "keras.layers", "class_name": "BatchNormalization", "config": {"name": "pool3_bn", "trainable": false, "dtype": "float32", "axis": [3], "momentum": 0.99, "epsilon": 1.001e-05, "center": true, "scale": true, "beta_initializer": {"module": "keras.initializers", "class_name": "Zeros", "config": {}, "registered_name": null}, "gamma_initializer": {"module": "keras.initializers", "class_name": "Ones", "config": {}, "registered_name": null}, "moving_mean_initializer": {"module": "keras.initializers", "class_name": "Zeros", "config": {}, "registered_name": null}, "moving_variance_initializer": {"module": "keras.initializers", "class_name": "Ones", "config": {}, "registered_name": null}, "beta_regularizer": null, "gamma_regularizer": null, "beta_constraint": null, "gamma_constraint": null}, "registered_name": null, "build_config": {"input_shape": [null, 25, 25, 512]}, "name": "pool3_bn", "inbound_nodes": [[["conv3_block12_concat", 0, 0, {}]]]}, {"module": "keras.layers", "class_name": "Activation", "config": {"name": "pool3_relu", "trainable": false, "dtype": "float32", "activation": "relu"}, "registered_name": null, "build_config": {"input_shape": [null, 25, 25, 512]}, "name": "pool3_relu", "inbound_nodes": [[["pool3_bn", 0, 0, {}]]]}, {"module": "keras.layers", "class_name": "Conv2D", "config": {"name": "pool3_conv", "trainable": false, "dtype": "float32", "filters": 256, "kernel_size": [1, 1], "strides": [1, 1], "padding": "valid", "data_format": "channels_last", "dilation_rate": [1, 1], "groups": 1, "activation": "linear", "use_bias": false, "kernel_initializer": {"module": "keras.initializers", "class_name": "GlorotUniform", "config": {"seed": null}, "registered_name": null}, "bias_initializer": {"module": "keras.initializers", "class_name": "Zeros", "config": {}, "registered_name": null}, "kernel_regularizer": null, "bias_regularizer": null, "activity_regularizer": null, "kernel_constraint": null, "bias_constraint": null}, "registered_name": null, "build_config": {"input_shape": [null, 25, 25, 512]}, "name": "pool3_conv", "inbound_nodes": [[["pool3_relu", 0, 0, {}]]]}, {"module": "keras.layers", "class_name": "AveragePooling2D", "config": {"name": "pool3_pool", "trainable": false, "dtype": "float32", "pool_size": [2, 2], "padding": "valid", "strides": [2, 2], "data_format": "channels_last"}, "registered_name": null, "build_config": {"input_shape": [null, 25, 25, 256]}, "name": "pool3_pool", "inbound_nodes": [[["pool3_conv", 0, 0, {}]]]}, {"module": "keras.layers", "class_name": "BatchNormalization", "config": {"name": "conv4_block1_0_bn", "trainable": false, "dtype": "float32", "axis": [3], "momentum": 0.99, "epsilon": 1.001e-05, "center": true, "scale": true, "beta_initializer": {"module": "keras.initializers", "class_name": "Zeros", "config": {}, "registered_name": null}, "gamma_initializer": {"module": "keras.initializers", "class_name": "Ones", "config": {}, "registered_name": null}, "moving_mean_initializer": {"module": "keras.initializers", "class_name": "Zeros", "config": {}, "registered_name": null}, "moving_variance_initializer": {"module": "keras.initializers", "class_name": "Ones", "config": {}, "registered_name": null}, "beta_regularizer": null, "gamma_regularizer": null, "beta_constraint": null, "gamma_constraint": null}, "registered_name": null, "build_config": {"input_shape": [null, 12, 12, 256]}, "name": "conv4_block1_0_bn", "inbound_nodes": [[["pool3_pool", 0, 0, {}]]]}, {"module": "keras.layers", "class_name": "Activation", "config": {"name": "conv4_block1_0_relu", "trainable": false, "dtype": "float32", "activation": "relu"}, "registered_name": null, "build_config": {"input_shape": [null, 12, 12, 256]}, "name": "conv4_block1_0_relu", "inbound_nodes": [[["conv4_block1_0_bn", 0, 0, {}]]]}, {"module": "keras.layers", "class_name": "Conv2D", "config": {"name": "conv4_block1_1_conv", "trainable": false, "dtype": "float32", "filters": 128, "kernel_size": [1, 1], "strides": [1, 1], "padding": "valid", "data_format": "channels_last", "dilation_rate": [1, 1], "groups": 1, "activation": "linear", "use_bias": false, "kernel_initializer": {"module": "keras.initializers", "class_name": "GlorotUniform", "config": {"seed": null}, "registered_name": null}, "bias_initializer": {"module": "keras.initializers", "class_name": "Zeros", "config": {}, "registered_name": null}, "kernel_regularizer": null, "bias_regularizer": null, "activity_regularizer": null, "kernel_constraint": null, "bias_constraint": null}, "registered_name": null, "build_config": {"input_shape": [null, 12, 12, 256]}, "name": "conv4_block1_1_conv", "inbound_nodes": [[["conv4_block1_0_relu", 0, 0, {}]]]}, {"module": "keras.layers", "class_name": "BatchNormalization", "config": {"name": "conv4_block1_1_bn", "trainable": false, "dtype": "float32", "axis": [3], "momentum": 0.99, "epsilon": 1.001e-05, "center": true, "scale": true, "beta_initializer": {"module": "keras.initializers", "class_name": "Zeros", "config": {}, "registered_name": null}, "gamma_initializer": {"module": "keras.initializers", "class_name": "Ones", "config": {}, "registered_name": null}, "moving_mean_initializer": {"module": "keras.initializers", "class_name": "Zeros", "config": {}, "registered_name": null}, "moving_variance_initializer": {"module": "keras.initializers", "class_name": "Ones", "config": {}, "registered_name": null}, "beta_regularizer": null, "gamma_regularizer": null, "beta_constraint": null, "gamma_constraint": null}, "registered_name": null, "build_config": {"input_shape": [null, 12, 12, 128]}, "name": "conv4_block1_1_bn", "inbound_nodes": [[["conv4_block1_1_conv", 0, 0, {}]]]}, {"module": "keras.layers", "class_name": "Activation", "config": {"name": "conv4_block1_1_relu", "trainable": false, "dtype": "float32", "activation": "relu"}, "registered_name": null, "build_config": {"input_shape": [null, 12, 12, 128]}, "name": "conv4_block1_1_relu", "inbound_nodes": [[["conv4_block1_1_bn", 0, 0, {}]]]}, {"module": "keras.layers", "class_name": "Conv2D", "config": {"name": "conv4_block1_2_conv", "trainable": false, "dtype": "float32", "filters": 32, "kernel_size": [3, 3], "strides": [1, 1], "padding": "same", "data_format": "channels_last", "dilation_rate": [1, 1], "groups": 1, "activation": "linear", "use_bias": false, "kernel_initializer": {"module": "keras.initializers", "class_name": "GlorotUniform", "config": {"seed": null}, "registered_name": null}, "bias_initializer": {"module": "keras.initializers", "class_name": "Zeros", "config": {}, "registered_name": null}, "kernel_regularizer": null, "bias_regularizer": null, "activity_regularizer": null, "kernel_constraint": null, "bias_constraint": null}, "registered_name": null, "build_config": {"input_shape": [null, 12, 12, 128]}, "name": "conv4_block1_2_conv", "inbound_nodes": [[["conv4_block1_1_relu", 0, 0, {}]]]}, {"module": "keras.layers", "class_name": "Concatenate", "config": {"name": "conv4_block1_concat", "trainable": false, "dtype": "float32", "axis": 3}, "registered_name": null, "build_config": {"input_shape": [[null, 12, 12, 256], [null, 12, 12, 32]]}, "name": "conv4_block1_concat", "inbound_nodes": [[["pool3_pool", 0, 0, {}], ["conv4_block1_2_conv", 0, 0, {}]]]}, {"module": "keras.layers", "class_name": "BatchNormalization", "config": {"name": "conv4_block2_0_bn", "trainable": false, "dtype": "float32", "axis": [3], "momentum": 0.99, "epsilon": 1.001e-05, "center": true, "scale": true, "beta_initializer": {"module": "keras.initializers", "class_name": "Zeros", "config": {}, "registered_name": null}, "gamma_initializer": {"module": "keras.initializers", "class_name": "Ones", "config": {}, "registered_name": null}, "moving_mean_initializer": {"module": "keras.initializers", "class_name": "Zeros", "config": {}, "registered_name": null}, "moving_variance_initializer": {"module": "keras.initializers", "class_name": "Ones", "config": {}, "registered_name": null}, "beta_regularizer": null, "gamma_regularizer": null, "beta_constraint": null, "gamma_constraint": null}, "registered_name": null, "build_config": {"input_shape": [null, 12, 12, 288]}, "name": "conv4_block2_0_bn", "inbound_nodes": [[["conv4_block1_concat", 0, 0, {}]]]}, {"module": "keras.layers", "class_name": "Activation", "config": {"name": "conv4_block2_0_relu", "trainable": false, "dtype": "float32", "activation": "relu"}, "registered_name": null, "build_config": {"input_shape": [null, 12, 12, 288]}, "name": "conv4_block2_0_relu", "inbound_nodes": [[["conv4_block2_0_bn", 0, 0, {}]]]}, {"module": "keras.layers", "class_name": "Conv2D", "config": {"name": "conv4_block2_1_conv", "trainable": false, "dtype": "float32", "filters": 128, "kernel_size": [1, 1], "strides": [1, 1], "padding": "valid", "data_format": "channels_last", "dilation_rate": [1, 1], "groups": 1, "activation": "linear", "use_bias": false, "kernel_initializer": {"module": "keras.initializers", "class_name": "GlorotUniform", "config": {"seed": null}, "registered_name": null}, "bias_initializer": {"module": "keras.initializers", "class_name": "Zeros", "config": {}, "registered_name": null}, "kernel_regularizer": null, "bias_regularizer": null, "activity_regularizer": null, "kernel_constraint": null, "bias_constraint": null}, "registered_name": null, "build_config": {"input_shape": [null, 12, 12, 288]}, "name": "conv4_block2_1_conv", "inbound_nodes": [[["conv4_block2_0_relu", 0, 0, {}]]]}, {"module": "keras.layers", "class_name": "BatchNormalization", "config": {"name": "conv4_block2_1_bn", "trainable": false, "dtype": "float32", "axis": [3], "momentum": 0.99, "epsilon": 1.001e-05, "center": true, "scale": true, "beta_initializer": {"module": "keras.initializers", "class_name": "Zeros", "config": {}, "registered_name": null}, "gamma_initializer": {"module": "keras.initializers", "class_name": "Ones", "config": {}, "registered_name": null}, "moving_mean_initializer": {"module": "keras.initializers", "class_name": "Zeros", "config": {}, "registered_name": null}, "moving_variance_initializer": {"module": "keras.initializers", "class_name": "Ones", "config": {}, "registered_name": null}, "beta_regularizer": null, "gamma_regularizer": null, "beta_constraint": null, "gamma_constraint": null}, "registered_name": null, "build_config": {"input_shape": [null, 12, 12, 128]}, "name": "conv4_block2_1_bn", "inbound_nodes": [[["conv4_block2_1_conv", 0, 0, {}]]]}, {"module": "keras.layers", "class_name": "Activation", "config": {"name": "conv4_block2_1_relu", "trainable": false, "dtype": "float32", "activation": "relu"}, "registered_name": null, "build_config": {"input_shape": [null, 12, 12, 128]}, "name": "conv4_block2_1_relu", "inbound_nodes": [[["conv4_block2_1_bn", 0, 0, {}]]]}, {"module": "keras.layers", "class_name": "Conv2D", "config": {"name": "conv4_block2_2_conv", "trainable": false, "dtype": "float32", "filters": 32, "kernel_size": [3, 3], "strides": [1, 1], "padding": "same", "data_format": "channels_last", "dilation_rate": [1, 1], "groups": 1, "activation": "linear", "use_bias": false, "kernel_initializer": {"module": "keras.initializers", "class_name": "GlorotUniform", "config": {"seed": null}, "registered_name": null}, "bias_initializer": {"module": "keras.initializers", "class_name": "Zeros", "config": {}, "registered_name": null}, "kernel_regularizer": null, "bias_regularizer": null, "activity_regularizer": null, "kernel_constraint": null, "bias_constraint": null}, "registered_name": null, "build_config": {"input_shape": [null, 12, 12, 128]}, "name": "conv4_block2_2_conv", "inbound_nodes": [[["conv4_block2_1_relu", 0, 0, {}]]]}, {"module": "keras.layers", "class_name": "Concatenate", "config": {"name": "conv4_block2_concat", "trainable": false, "dtype": "float32", "axis": 3}, "registered_name": null, "build_config": {"input_shape": [[null, 12, 12, 288], [null, 12, 12, 32]]}, "name": "conv4_block2_concat", "inbound_nodes": [[["conv4_block1_concat", 0, 0, {}], ["conv4_block2_2_conv", 0, 0, {}]]]}, {"module": "keras.layers", "class_name": "BatchNormalization", "config": {"name": "conv4_block3_0_bn", "trainable": false, "dtype": "float32", "axis": [3], "momentum": 0.99, "epsilon": 1.001e-05, "center": true, "scale": true, "beta_initializer": {"module": "keras.initializers", "class_name": "Zeros", "config": {}, "registered_name": null}, "gamma_initializer": {"module": "keras.initializers", "class_name": "Ones", "config": {}, "registered_name": null}, "moving_mean_initializer": {"module": "keras.initializers", "class_name": "Zeros", "config": {}, "registered_name": null}, "moving_variance_initializer": {"module": "keras.initializers", "class_name": "Ones", "config": {}, "registered_name": null}, "beta_regularizer": null, "gamma_regularizer": null, "beta_constraint": null, "gamma_constraint": null}, "registered_name": null, "build_config": {"input_shape": [null, 12, 12, 320]}, "name": "conv4_block3_0_bn", "inbound_nodes": [[["conv4_block2_concat", 0, 0, {}]]]}, {"module": "keras.layers", "class_name": "Activation", "config": {"name": "conv4_block3_0_relu", "trainable": false, "dtype": "float32", "activation": "relu"}, "registered_name": null, "build_config": {"input_shape": [null, 12, 12, 320]}, "name": "conv4_block3_0_relu", "inbound_nodes": [[["conv4_block3_0_bn", 0, 0, {}]]]}, {"module": "keras.layers", "class_name": "Conv2D", "config": {"name": "conv4_block3_1_conv", "trainable": false, "dtype": "float32", "filters": 128, "kernel_size": [1, 1], "strides": [1, 1], "padding": "valid", "data_format": "channels_last", "dilation_rate": [1, 1], "groups": 1, "activation": "linear", "use_bias": false, "kernel_initializer": {"module": "keras.initializers", "class_name": "GlorotUniform", "config": {"seed": null}, "registered_name": null}, "bias_initializer": {"module": "keras.initializers", "class_name": "Zeros", "config": {}, "registered_name": null}, "kernel_regularizer": null, "bias_regularizer": null, "activity_regularizer": null, "kernel_constraint": null, "bias_constraint": null}, "registered_name": null, "build_config": {"input_shape": [null, 12, 12, 320]}, "name": "conv4_block3_1_conv", "inbound_nodes": [[["conv4_block3_0_relu", 0, 0, {}]]]}, {"module": "keras.layers", "class_name": "BatchNormalization", "config": {"name": "conv4_block3_1_bn", "trainable": false, "dtype": "float32", "axis": [3], "momentum": 0.99, "epsilon": 1.001e-05, "center": true, "scale": true, "beta_initializer": {"module": "keras.initializers", "class_name": "Zeros", "config": {}, "registered_name": null}, "gamma_initializer": {"module": "keras.initializers", "class_name": "Ones", "config": {}, "registered_name": null}, "moving_mean_initializer": {"module": "keras.initializers", "class_name": "Zeros", "config": {}, "registered_name": null}, "moving_variance_initializer": {"module": "keras.initializers", "class_name": "Ones", "config": {}, "registered_name": null}, "beta_regularizer": null, "gamma_regularizer": null, "beta_constraint": null, "gamma_constraint": null}, "registered_name": null, "build_config": {"input_shape": [null, 12, 12, 128]}, "name": "conv4_block3_1_bn", "inbound_nodes": [[["conv4_block3_1_conv", 0, 0, {}]]]}, {"module": "keras.layers", "class_name": "Activation", "config": {"name": "conv4_block3_1_relu", "trainable": false, "dtype": "float32", "activation": "relu"}, "registered_name": null, "build_config": {"input_shape": [null, 12, 12, 128]}, "name": "conv4_block3_1_relu", "inbound_nodes": [[["conv4_block3_1_bn", 0, 0, {}]]]}, {"module": "keras.layers", "class_name": "Conv2D", "config": {"name": "conv4_block3_2_conv", "trainable": false, "dtype": "float32", "filters": 32, "kernel_size": [3, 3], "strides": [1, 1], "padding": "same", "data_format": "channels_last", "dilation_rate": [1, 1], "groups": 1, "activation": "linear", "use_bias": false, "kernel_initializer": {"module": "keras.initializers", "class_name": "GlorotUniform", "config": {"seed": null}, "registered_name": null}, "bias_initializer": {"module": "keras.initializers", "class_name": "Zeros", "config": {}, "registered_name": null}, "kernel_regularizer": null, "bias_regularizer": null, "activity_regularizer": null, "kernel_constraint": null, "bias_constraint": null}, "registered_name": null, "build_config": {"input_shape": [null, 12, 12, 128]}, "name": "conv4_block3_2_conv", "inbound_nodes": [[["conv4_block3_1_relu", 0, 0, {}]]]}, {"module": "keras.layers", "class_name": "Concatenate", "config": {"name": "conv4_block3_concat", "trainable": false, "dtype": "float32", "axis": 3}, "registered_name": null, "build_config": {"input_shape": [[null, 12, 12, 320], [null, 12, 12, 32]]}, "name": "conv4_block3_concat", "inbound_nodes": [[["conv4_block2_concat", 0, 0, {}], ["conv4_block3_2_conv", 0, 0, {}]]]}, {"module": "keras.layers", "class_name": "BatchNormalization", "config": {"name": "conv4_block4_0_bn", "trainable": false, "dtype": "float32", "axis": [3], "momentum": 0.99, "epsilon": 1.001e-05, "center": true, "scale": true, "beta_initializer": {"module": "keras.initializers", "class_name": "Zeros", "config": {}, "registered_name": null}, "gamma_initializer": {"module": "keras.initializers", "class_name": "Ones", "config": {}, "registered_name": null}, "moving_mean_initializer": {"module": "keras.initializers", "class_name": "Zeros", "config": {}, "registered_name": null}, "moving_variance_initializer": {"module": "keras.initializers", "class_name": "Ones", "config": {}, "registered_name": null}, "beta_regularizer": null, "gamma_regularizer": null, "beta_constraint": null, "gamma_constraint": null}, "registered_name": null, "build_config": {"input_shape": [null, 12, 12, 352]}, "name": "conv4_block4_0_bn", "inbound_nodes": [[["conv4_block3_concat", 0, 0, {}]]]}, {"module": "keras.layers", "class_name": "Activation", "config": {"name": "conv4_block4_0_relu", "trainable": false, "dtype": "float32", "activation": "relu"}, "registered_name": null, "build_config": {"input_shape": [null, 12, 12, 352]}, "name": "conv4_block4_0_relu", "inbound_nodes": [[["conv4_block4_0_bn", 0, 0, {}]]]}, {"module": "keras.layers", "class_name": "Conv2D", "config": {"name": "conv4_block4_1_conv", "trainable": false, "dtype": "float32", "filters": 128, "kernel_size": [1, 1], "strides": [1, 1], "padding": "valid", "data_format": "channels_last", "dilation_rate": [1, 1], "groups": 1, "activation": "linear", "use_bias": false, "kernel_initializer": {"module": "keras.initializers", "class_name": "GlorotUniform", "config": {"seed": null}, "registered_name": null}, "bias_initializer": {"module": "keras.initializers", "class_name": "Zeros", "config": {}, "registered_name": null}, "kernel_regularizer": null, "bias_regularizer": null, "activity_regularizer": null, "kernel_constraint": null, "bias_constraint": null}, "registered_name": null, "build_config": {"input_shape": [null, 12, 12, 352]}, "name": "conv4_block4_1_conv", "inbound_nodes": [[["conv4_block4_0_relu", 0, 0, {}]]]}, {"module": "keras.layers", "class_name": "BatchNormalization", "config": {"name": "conv4_block4_1_bn", "trainable": false, "dtype": "float32", "axis": [3], "momentum": 0.99, "epsilon": 1.001e-05, "center": true, "scale": true, "beta_initializer": {"module": "keras.initializers", "class_name": "Zeros", "config": {}, "registered_name": null}, "gamma_initializer": {"module": "keras.initializers", "class_name": "Ones", "config": {}, "registered_name": null}, "moving_mean_initializer": {"module": "keras.initializers", "class_name": "Zeros", "config": {}, "registered_name": null}, "moving_variance_initializer": {"module": "keras.initializers", "class_name": "Ones", "config": {}, "registered_name": null}, "beta_regularizer": null, "gamma_regularizer": null, "beta_constraint": null, "gamma_constraint": null}, "registered_name": null, "build_config": {"input_shape": [null, 12, 12, 128]}, "name": "conv4_block4_1_bn", "inbound_nodes": [[["conv4_block4_1_conv", 0, 0, {}]]]}, {"module": "keras.layers", "class_name": "Activation", "config": {"name": "conv4_block4_1_relu", "trainable": false, "dtype": "float32", "activation": "relu"}, "registered_name": null, "build_config": {"input_shape": [null, 12, 12, 128]}, "name": "conv4_block4_1_relu", "inbound_nodes": [[["conv4_block4_1_bn", 0, 0, {}]]]}, {"module": "keras.layers", "class_name": "Conv2D", "config": {"name": "conv4_block4_2_conv", "trainable": false, "dtype": "float32", "filters": 32, "kernel_size": [3, 3], "strides": [1, 1], "padding": "same", "data_format": "channels_last", "dilation_rate": [1, 1], "groups": 1, "activation": "linear", "use_bias": false, "kernel_initializer": {"module": "keras.initializers", "class_name": "GlorotUniform", "config": {"seed": null}, "registered_name": null}, "bias_initializer": {"module": "keras.initializers", "class_name": "Zeros", "config": {}, "registered_name": null}, "kernel_regularizer": null, "bias_regularizer": null, "activity_regularizer": null, "kernel_constraint": null, "bias_constraint": null}, "registered_name": null, "build_config": {"input_shape": [null, 12, 12, 128]}, "name": "conv4_block4_2_conv", "inbound_nodes": [[["conv4_block4_1_relu", 0, 0, {}]]]}, {"module": "keras.layers", "class_name": "Concatenate", "config": {"name": "conv4_block4_concat", "trainable": false, "dtype": "float32", "axis": 3}, "registered_name": null, "build_config": {"input_shape": [[null, 12, 12, 352], [null, 12, 12, 32]]}, "name": "conv4_block4_concat", "inbound_nodes": [[["conv4_block3_concat", 0, 0, {}], ["conv4_block4_2_conv", 0, 0, {}]]]}, {"module": "keras.layers", "class_name": "BatchNormalization", "config": {"name": "conv4_block5_0_bn", "trainable": false, "dtype": "float32", "axis": [3], "momentum": 0.99, "epsilon": 1.001e-05, "center": true, "scale": true, "beta_initializer": {"module": "keras.initializers", "class_name": "Zeros", "config": {}, "registered_name": null}, "gamma_initializer": {"module": "keras.initializers", "class_name": "Ones", "config": {}, "registered_name": null}, "moving_mean_initializer": {"module": "keras.initializers", "class_name": "Zeros", "config": {}, "registered_name": null}, "moving_variance_initializer": {"module": "keras.initializers", "class_name": "Ones", "config": {}, "registered_name": null}, "beta_regularizer": null, "gamma_regularizer": null, "beta_constraint": null, "gamma_constraint": null}, "registered_name": null, "build_config": {"input_shape": [null, 12, 12, 384]}, "name": "conv4_block5_0_bn", "inbound_nodes": [[["conv4_block4_concat", 0, 0, {}]]]}, {"module": "keras.layers", "class_name": "Activation", "config": {"name": "conv4_block5_0_relu", "trainable": false, "dtype": "float32", "activation": "relu"}, "registered_name": null, "build_config": {"input_shape": [null, 12, 12, 384]}, "name": "conv4_block5_0_relu", "inbound_nodes": [[["conv4_block5_0_bn", 0, 0, {}]]]}, {"module": "keras.layers", "class_name": "Conv2D", "config": {"name": "conv4_block5_1_conv", "trainable": false, "dtype": "float32", "filters": 128, "kernel_size": [1, 1], "strides": [1, 1], "padding": "valid", "data_format": "channels_last", "dilation_rate": [1, 1], "groups": 1, "activation": "linear", "use_bias": false, "kernel_initializer": {"module": "keras.initializers", "class_name": "GlorotUniform", "config": {"seed": null}, "registered_name": null}, "bias_initializer": {"module": "keras.initializers", "class_name": "Zeros", "config": {}, "registered_name": null}, "kernel_regularizer": null, "bias_regularizer": null, "activity_regularizer": null, "kernel_constraint": null, "bias_constraint": null}, "registered_name": null, "build_config": {"input_shape": [null, 12, 12, 384]}, "name": "conv4_block5_1_conv", "inbound_nodes": [[["conv4_block5_0_relu", 0, 0, {}]]]}, {"module": "keras.layers", "class_name": "BatchNormalization", "config": {"name": "conv4_block5_1_bn", "trainable": false, "dtype": "float32", "axis": [3], "momentum": 0.99, "epsilon": 1.001e-05, "center": true, "scale": true, "beta_initializer": {"module": "keras.initializers", "class_name": "Zeros", "config": {}, "registered_name": null}, "gamma_initializer": {"module": "keras.initializers", "class_name": "Ones", "config": {}, "registered_name": null}, "moving_mean_initializer": {"module": "keras.initializers", "class_name": "Zeros", "config": {}, "registered_name": null}, "moving_variance_initializer": {"module": "keras.initializers", "class_name": "Ones", "config": {}, "registered_name": null}, "beta_regularizer": null, "gamma_regularizer": null, "beta_constraint": null, "gamma_constraint": null}, "registered_name": null, "build_config": {"input_shape": [null, 12, 12, 128]}, "name": "conv4_block5_1_bn", "inbound_nodes": [[["conv4_block5_1_conv", 0, 0, {}]]]}, {"module": "keras.layers", "class_name": "Activation", "config": {"name": "conv4_block5_1_relu", "trainable": false, "dtype": "float32", "activation": "relu"}, "registered_name": null, "build_config": {"input_shape": [null, 12, 12, 128]}, "name": "conv4_block5_1_relu", "inbound_nodes": [[["conv4_block5_1_bn", 0, 0, {}]]]}, {"module": "keras.layers", "class_name": "Conv2D", "config": {"name": "conv4_block5_2_conv", "trainable": false, "dtype": "float32", "filters": 32, "kernel_size": [3, 3], "strides": [1, 1], "padding": "same", "data_format": "channels_last", "dilation_rate": [1, 1], "groups": 1, "activation": "linear", "use_bias": false, "kernel_initializer": {"module": "keras.initializers", "class_name": "GlorotUniform", "config": {"seed": null}, "registered_name": null}, "bias_initializer": {"module": "keras.initializers", "class_name": "Zeros", "config": {}, "registered_name": null}, "kernel_regularizer": null, "bias_regularizer": null, "activity_regularizer": null, "kernel_constraint": null, "bias_constraint": null}, "registered_name": null, "build_config": {"input_shape": [null, 12, 12, 128]}, "name": "conv4_block5_2_conv", "inbound_nodes": [[["conv4_block5_1_relu", 0, 0, {}]]]}, {"module": "keras.layers", "class_name": "Concatenate", "config": {"name": "conv4_block5_concat", "trainable": false, "dtype": "float32", "axis": 3}, "registered_name": null, "build_config": {"input_shape": [[null, 12, 12, 384], [null, 12, 12, 32]]}, "name": "conv4_block5_concat", "inbound_nodes": [[["conv4_block4_concat", 0, 0, {}], ["conv4_block5_2_conv", 0, 0, {}]]]}, {"module": "keras.layers", "class_name": "BatchNormalization", "config": {"name": "conv4_block6_0_bn", "trainable": false, "dtype": "float32", "axis": [3], "momentum": 0.99, "epsilon": 1.001e-05, "center": true, "scale": true, "beta_initializer": {"module": "keras.initializers", "class_name": "Zeros", "config": {}, "registered_name": null}, "gamma_initializer": {"module": "keras.initializers", "class_name": "Ones", "config": {}, "registered_name": null}, "moving_mean_initializer": {"module": "keras.initializers", "class_name": "Zeros", "config": {}, "registered_name": null}, "moving_variance_initializer": {"module": "keras.initializers", "class_name": "Ones", "config": {}, "registered_name": null}, "beta_regularizer": null, "gamma_regularizer": null, "beta_constraint": null, "gamma_constraint": null}, "registered_name": null, "build_config": {"input_shape": [null, 12, 12, 416]}, "name": "conv4_block6_0_bn", "inbound_nodes": [[["conv4_block5_concat", 0, 0, {}]]]}, {"module": "keras.layers", "class_name": "Activation", "config": {"name": "conv4_block6_0_relu", "trainable": false, "dtype": "float32", "activation": "relu"}, "registered_name": null, "build_config": {"input_shape": [null, 12, 12, 416]}, "name": "conv4_block6_0_relu", "inbound_nodes": [[["conv4_block6_0_bn", 0, 0, {}]]]}, {"module": "keras.layers", "class_name": "Conv2D", "config": {"name": "conv4_block6_1_conv", "trainable": false, "dtype": "float32", "filters": 128, "kernel_size": [1, 1], "strides": [1, 1], "padding": "valid", "data_format": "channels_last", "dilation_rate": [1, 1], "groups": 1, "activation": "linear", "use_bias": false, "kernel_initializer": {"module": "keras.initializers", "class_name": "GlorotUniform", "config": {"seed": null}, "registered_name": null}, "bias_initializer": {"module": "keras.initializers", "class_name": "Zeros", "config": {}, "registered_name": null}, "kernel_regularizer": null, "bias_regularizer": null, "activity_regularizer": null, "kernel_constraint": null, "bias_constraint": null}, "registered_name": null, "build_config": {"input_shape": [null, 12, 12, 416]}, "name": "conv4_block6_1_conv", "inbound_nodes": [[["conv4_block6_0_relu", 0, 0, {}]]]}, {"module": "keras.layers", "class_name": "BatchNormalization", "config": {"name": "conv4_block6_1_bn", "trainable": false, "dtype": "float32", "axis": [3], "momentum": 0.99, "epsilon": 1.001e-05, "center": true, "scale": true, "beta_initializer": {"module": "keras.initializers", "class_name": "Zeros", "config": {}, "registered_name": null}, "gamma_initializer": {"module": "keras.initializers", "class_name": "Ones", "config": {}, "registered_name": null}, "moving_mean_initializer": {"module": "keras.initializers", "class_name": "Zeros", "config": {}, "registered_name": null}, "moving_variance_initializer": {"module": "keras.initializers", "class_name": "Ones", "config": {}, "registered_name": null}, "beta_regularizer": null, "gamma_regularizer": null, "beta_constraint": null, "gamma_constraint": null}, "registered_name": null, "build_config": {"input_shape": [null, 12, 12, 128]}, "name": "conv4_block6_1_bn", "inbound_nodes": [[["conv4_block6_1_conv", 0, 0, {}]]]}, {"module": "keras.layers", "class_name": "Activation", "config": {"name": "conv4_block6_1_relu", "trainable": false, "dtype": "float32", "activation": "relu"}, "registered_name": null, "build_config": {"input_shape": [null, 12, 12, 128]}, "name": "conv4_block6_1_relu", "inbound_nodes": [[["conv4_block6_1_bn", 0, 0, {}]]]}, {"module": "keras.layers", "class_name": "Conv2D", "config": {"name": "conv4_block6_2_conv", "trainable": false, "dtype": "float32", "filters": 32, "kernel_size": [3, 3], "strides": [1, 1], "padding": "same", "data_format": "channels_last", "dilation_rate": [1, 1], "groups": 1, "activation": "linear", "use_bias": false, "kernel_initializer": {"module": "keras.initializers", "class_name": "GlorotUniform", "config": {"seed": null}, "registered_name": null}, "bias_initializer": {"module": "keras.initializers", "class_name": "Zeros", "config": {}, "registered_name": null}, "kernel_regularizer": null, "bias_regularizer": null, "activity_regularizer": null, "kernel_constraint": null, "bias_constraint": null}, "registered_name": null, "build_config": {"input_shape": [null, 12, 12, 128]}, "name": "conv4_block6_2_conv", "inbound_nodes": [[["conv4_block6_1_relu", 0, 0, {}]]]}, {"module": "keras.layers", "class_name": "Concatenate", "config": {"name": "conv4_block6_concat", "trainable": false, "dtype": "float32", "axis": 3}, "registered_name": null, "build_config": {"input_shape": [[null, 12, 12, 416], [null, 12, 12, 32]]}, "name": "conv4_block6_concat", "inbound_nodes": [[["conv4_block5_concat", 0, 0, {}], ["conv4_block6_2_conv", 0, 0, {}]]]}, {"module": "keras.layers", "class_name": "BatchNormalization", "config": {"name": "conv4_block7_0_bn", "trainable": false, "dtype": "float32", "axis": [3], "momentum": 0.99, "epsilon": 1.001e-05, "center": true, "scale": true, "beta_initializer": {"module": "keras.initializers", "class_name": "Zeros", "config": {}, "registered_name": null}, "gamma_initializer": {"module": "keras.initializers", "class_name": "Ones", "config": {}, "registered_name": null}, "moving_mean_initializer": {"module": "keras.initializers", "class_name": "Zeros", "config": {}, "registered_name": null}, "moving_variance_initializer": {"module": "keras.initializers", "class_name": "Ones", "config": {}, "registered_name": null}, "beta_regularizer": null, "gamma_regularizer": null, "beta_constraint": null, "gamma_constraint": null}, "registered_name": null, "build_config": {"input_shape": [null, 12, 12, 448]}, "name": "conv4_block7_0_bn", "inbound_nodes": [[["conv4_block6_concat", 0, 0, {}]]]}, {"module": "keras.layers", "class_name": "Activation", "config": {"name": "conv4_block7_0_relu", "trainable": false, "dtype": "float32", "activation": "relu"}, "registered_name": null, "build_config": {"input_shape": [null, 12, 12, 448]}, "name": "conv4_block7_0_relu", "inbound_nodes": [[["conv4_block7_0_bn", 0, 0, {}]]]}, {"module": "keras.layers", "class_name": "Conv2D", "config": {"name": "conv4_block7_1_conv", "trainable": false, "dtype": "float32", "filters": 128, "kernel_size": [1, 1], "strides": [1, 1], "padding": "valid", "data_format": "channels_last", "dilation_rate": [1, 1], "groups": 1, "activation": "linear", "use_bias": false, "kernel_initializer": {"module": "keras.initializers", "class_name": "GlorotUniform", "config": {"seed": null}, "registered_name": null}, "bias_initializer": {"module": "keras.initializers", "class_name": "Zeros", "config": {}, "registered_name": null}, "kernel_regularizer": null, "bias_regularizer": null, "activity_regularizer": null, "kernel_constraint": null, "bias_constraint": null}, "registered_name": null, "build_config": {"input_shape": [null, 12, 12, 448]}, "name": "conv4_block7_1_conv", "inbound_nodes": [[["conv4_block7_0_relu", 0, 0, {}]]]}, {"module": "keras.layers", "class_name": "BatchNormalization", "config": {"name": "conv4_block7_1_bn", "trainable": false, "dtype": "float32", "axis": [3], "momentum": 0.99, "epsilon": 1.001e-05, "center": true, "scale": true, "beta_initializer": {"module": "keras.initializers", "class_name": "Zeros", "config": {}, "registered_name": null}, "gamma_initializer": {"module": "keras.initializers", "class_name": "Ones", "config": {}, "registered_name": null}, "moving_mean_initializer": {"module": "keras.initializers", "class_name": "Zeros", "config": {}, "registered_name": null}, "moving_variance_initializer": {"module": "keras.initializers", "class_name": "Ones", "config": {}, "registered_name": null}, "beta_regularizer": null, "gamma_regularizer": null, "beta_constraint": null, "gamma_constraint": null}, "registered_name": null, "build_config": {"input_shape": [null, 12, 12, 128]}, "name": "conv4_block7_1_bn", "inbound_nodes": [[["conv4_block7_1_conv", 0, 0, {}]]]}, {"module": "keras.layers", "class_name": "Activation", "config": {"name": "conv4_block7_1_relu", "trainable": false, "dtype": "float32", "activation": "relu"}, "registered_name": null, "build_config": {"input_shape": [null, 12, 12, 128]}, "name": "conv4_block7_1_relu", "inbound_nodes": [[["conv4_block7_1_bn", 0, 0, {}]]]}, {"module": "keras.layers", "class_name": "Conv2D", "config": {"name": "conv4_block7_2_conv", "trainable": false, "dtype": "float32", "filters": 32, "kernel_size": [3, 3], "strides": [1, 1], "padding": "same", "data_format": "channels_last", "dilation_rate": [1, 1], "groups": 1, "activation": "linear", "use_bias": false, "kernel_initializer": {"module": "keras.initializers", "class_name": "GlorotUniform", "config": {"seed": null}, "registered_name": null}, "bias_initializer": {"module": "keras.initializers", "class_name": "Zeros", "config": {}, "registered_name": null}, "kernel_regularizer": null, "bias_regularizer": null, "activity_regularizer": null, "kernel_constraint": null, "bias_constraint": null}, "registered_name": null, "build_config": {"input_shape": [null, 12, 12, 128]}, "name": "conv4_block7_2_conv", "inbound_nodes": [[["conv4_block7_1_relu", 0, 0, {}]]]}, {"module": "keras.layers", "class_name": "Concatenate", "config": {"name": "conv4_block7_concat", "trainable": false, "dtype": "float32", "axis": 3}, "registered_name": null, "build_config": {"input_shape": [[null, 12, 12, 448], [null, 12, 12, 32]]}, "name": "conv4_block7_concat", "inbound_nodes": [[["conv4_block6_concat", 0, 0, {}], ["conv4_block7_2_conv", 0, 0, {}]]]}, {"module": "keras.layers", "class_name": "BatchNormalization", "config": {"name": "conv4_block8_0_bn", "trainable": false, "dtype": "float32", "axis": [3], "momentum": 0.99, "epsilon": 1.001e-05, "center": true, "scale": true, "beta_initializer": {"module": "keras.initializers", "class_name": "Zeros", "config": {}, "registered_name": null}, "gamma_initializer": {"module": "keras.initializers", "class_name": "Ones", "config": {}, "registered_name": null}, "moving_mean_initializer": {"module": "keras.initializers", "class_name": "Zeros", "config": {}, "registered_name": null}, "moving_variance_initializer": {"module": "keras.initializers", "class_name": "Ones", "config": {}, "registered_name": null}, "beta_regularizer": null, "gamma_regularizer": null, "beta_constraint": null, "gamma_constraint": null}, "registered_name": null, "build_config": {"input_shape": [null, 12, 12, 480]}, "name": "conv4_block8_0_bn", "inbound_nodes": [[["conv4_block7_concat", 0, 0, {}]]]}, {"module": "keras.layers", "class_name": "Activation", "config": {"name": "conv4_block8_0_relu", "trainable": false, "dtype": "float32", "activation": "relu"}, "registered_name": null, "build_config": {"input_shape": [null, 12, 12, 480]}, "name": "conv4_block8_0_relu", "inbound_nodes": [[["conv4_block8_0_bn", 0, 0, {}]]]}, {"module": "keras.layers", "class_name": "Conv2D", "config": {"name": "conv4_block8_1_conv", "trainable": false, "dtype": "float32", "filters": 128, "kernel_size": [1, 1], "strides": [1, 1], "padding": "valid", "data_format": "channels_last", "dilation_rate": [1, 1], "groups": 1, "activation": "linear", "use_bias": false, "kernel_initializer": {"module": "keras.initializers", "class_name": "GlorotUniform", "config": {"seed": null}, "registered_name": null}, "bias_initializer": {"module": "keras.initializers", "class_name": "Zeros", "config": {}, "registered_name": null}, "kernel_regularizer": null, "bias_regularizer": null, "activity_regularizer": null, "kernel_constraint": null, "bias_constraint": null}, "registered_name": null, "build_config": {"input_shape": [null, 12, 12, 480]}, "name": "conv4_block8_1_conv", "inbound_nodes": [[["conv4_block8_0_relu", 0, 0, {}]]]}, {"module": "keras.layers", "class_name": "BatchNormalization", "config": {"name": "conv4_block8_1_bn", "trainable": false, "dtype": "float32", "axis": [3], "momentum": 0.99, "epsilon": 1.001e-05, "center": true, "scale": true, "beta_initializer": {"module": "keras.initializers", "class_name": "Zeros", "config": {}, "registered_name": null}, "gamma_initializer": {"module": "keras.initializers", "class_name": "Ones", "config": {}, "registered_name": null}, "moving_mean_initializer": {"module": "keras.initializers", "class_name": "Zeros", "config": {}, "registered_name": null}, "moving_variance_initializer": {"module": "keras.initializers", "class_name": "Ones", "config": {}, "registered_name": null}, "beta_regularizer": null, "gamma_regularizer": null, "beta_constraint": null, "gamma_constraint": null}, "registered_name": null, "build_config": {"input_shape": [null, 12, 12, 128]}, "name": "conv4_block8_1_bn", "inbound_nodes": [[["conv4_block8_1_conv", 0, 0, {}]]]}, {"module": "keras.layers", "class_name": "Activation", "config": {"name": "conv4_block8_1_relu", "trainable": false, "dtype": "float32", "activation": "relu"}, "registered_name": null, "build_config": {"input_shape": [null, 12, 12, 128]}, "name": "conv4_block8_1_relu", "inbound_nodes": [[["conv4_block8_1_bn", 0, 0, {}]]]}, {"module": "keras.layers", "class_name": "Conv2D", "config": {"name": "conv4_block8_2_conv", "trainable": false, "dtype": "float32", "filters": 32, "kernel_size": [3, 3], "strides": [1, 1], "padding": "same", "data_format": "channels_last", "dilation_rate": [1, 1], "groups": 1, "activation": "linear", "use_bias": false, "kernel_initializer": {"module": "keras.initializers", "class_name": "GlorotUniform", "config": {"seed": null}, "registered_name": null}, "bias_initializer": {"module": "keras.initializers", "class_name": "Zeros", "config": {}, "registered_name": null}, "kernel_regularizer": null, "bias_regularizer": null, "activity_regularizer": null, "kernel_constraint": null, "bias_constraint": null}, "registered_name": null, "build_config": {"input_shape": [null, 12, 12, 128]}, "name": "conv4_block8_2_conv", "inbound_nodes": [[["conv4_block8_1_relu", 0, 0, {}]]]}, {"module": "keras.layers", "class_name": "Concatenate", "config": {"name": "conv4_block8_concat", "trainable": false, "dtype": "float32", "axis": 3}, "registered_name": null, "build_config": {"input_shape": [[null, 12, 12, 480], [null, 12, 12, 32]]}, "name": "conv4_block8_concat", "inbound_nodes": [[["conv4_block7_concat", 0, 0, {}], ["conv4_block8_2_conv", 0, 0, {}]]]}, {"module": "keras.layers", "class_name": "BatchNormalization", "config": {"name": "conv4_block9_0_bn", "trainable": false, "dtype": "float32", "axis": [3], "momentum": 0.99, "epsilon": 1.001e-05, "center": true, "scale": true, "beta_initializer": {"module": "keras.initializers", "class_name": "Zeros", "config": {}, "registered_name": null}, "gamma_initializer": {"module": "keras.initializers", "class_name": "Ones", "config": {}, "registered_name": null}, "moving_mean_initializer": {"module": "keras.initializers", "class_name": "Zeros", "config": {}, "registered_name": null}, "moving_variance_initializer": {"module": "keras.initializers", "class_name": "Ones", "config": {}, "registered_name": null}, "beta_regularizer": null, "gamma_regularizer": null, "beta_constraint": null, "gamma_constraint": null}, "registered_name": null, "build_config": {"input_shape": [null, 12, 12, 512]}, "name": "conv4_block9_0_bn", "inbound_nodes": [[["conv4_block8_concat", 0, 0, {}]]]}, {"module": "keras.layers", "class_name": "Activation", "config": {"name": "conv4_block9_0_relu", "trainable": false, "dtype": "float32", "activation": "relu"}, "registered_name": null, "build_config": {"input_shape": [null, 12, 12, 512]}, "name": "conv4_block9_0_relu", "inbound_nodes": [[["conv4_block9_0_bn", 0, 0, {}]]]}, {"module": "keras.layers", "class_name": "Conv2D", "config": {"name": "conv4_block9_1_conv", "trainable": false, "dtype": "float32", "filters": 128, "kernel_size": [1, 1], "strides": [1, 1], "padding": "valid", "data_format": "channels_last", "dilation_rate": [1, 1], "groups": 1, "activation": "linear", "use_bias": false, "kernel_initializer": {"module": "keras.initializers", "class_name": "GlorotUniform", "config": {"seed": null}, "registered_name": null}, "bias_initializer": {"module": "keras.initializers", "class_name": "Zeros", "config": {}, "registered_name": null}, "kernel_regularizer": null, "bias_regularizer": null, "activity_regularizer": null, "kernel_constraint": null, "bias_constraint": null}, "registered_name": null, "build_config": {"input_shape": [null, 12, 12, 512]}, "name": "conv4_block9_1_conv", "inbound_nodes": [[["conv4_block9_0_relu", 0, 0, {}]]]}, {"module": "keras.layers", "class_name": "BatchNormalization", "config": {"name": "conv4_block9_1_bn", "trainable": false, "dtype": "float32", "axis": [3], "momentum": 0.99, "epsilon": 1.001e-05, "center": true, "scale": true, "beta_initializer": {"module": "keras.initializers", "class_name": "Zeros", "config": {}, "registered_name": null}, "gamma_initializer": {"module": "keras.initializers", "class_name": "Ones", "config": {}, "registered_name": null}, "moving_mean_initializer": {"module": "keras.initializers", "class_name": "Zeros", "config": {}, "registered_name": null}, "moving_variance_initializer": {"module": "keras.initializers", "class_name": "Ones", "config": {}, "registered_name": null}, "beta_regularizer": null, "gamma_regularizer": null, "beta_constraint": null, "gamma_constraint": null}, "registered_name": null, "build_config": {"input_shape": [null, 12, 12, 128]}, "name": "conv4_block9_1_bn", "inbound_nodes": [[["conv4_block9_1_conv", 0, 0, {}]]]}, {"module": "keras.layers", "class_name": "Activation", "config": {"name": "conv4_block9_1_relu", "trainable": false, "dtype": "float32", "activation": "relu"}, "registered_name": null, "build_config": {"input_shape": [null, 12, 12, 128]}, "name": "conv4_block9_1_relu", "inbound_nodes": [[["conv4_block9_1_bn", 0, 0, {}]]]}, {"module": "keras.layers", "class_name": "Conv2D", "config": {"name": "conv4_block9_2_conv", "trainable": false, "dtype": "float32", "filters": 32, "kernel_size": [3, 3], "strides": [1, 1], "padding": "same", "data_format": "channels_last", "dilation_rate": [1, 1], "groups": 1, "activation": "linear", "use_bias": false, "kernel_initializer": {"module": "keras.initializers", "class_name": "GlorotUniform", "config": {"seed": null}, "registered_name": null}, "bias_initializer": {"module": "keras.initializers", "class_name": "Zeros", "config": {}, "registered_name": null}, "kernel_regularizer": null, "bias_regularizer": null, "activity_regularizer": null, "kernel_constraint": null, "bias_constraint": null}, "registered_name": null, "build_config": {"input_shape": [null, 12, 12, 128]}, "name": "conv4_block9_2_conv", "inbound_nodes": [[["conv4_block9_1_relu", 0, 0, {}]]]}, {"module": "keras.layers", "class_name": "Concatenate", "config": {"name": "conv4_block9_concat", "trainable": false, "dtype": "float32", "axis": 3}, "registered_name": null, "build_config": {"input_shape": [[null, 12, 12, 512], [null, 12, 12, 32]]}, "name": "conv4_block9_concat", "inbound_nodes": [[["conv4_block8_concat", 0, 0, {}], ["conv4_block9_2_conv", 0, 0, {}]]]}, {"module": "keras.layers", "class_name": "BatchNormalization", "config": {"name": "conv4_block10_0_bn", "trainable": false, "dtype": "float32", "axis": [3], "momentum": 0.99, "epsilon": 1.001e-05, "center": true, "scale": true, "beta_initializer": {"module": "keras.initializers", "class_name": "Zeros", "config": {}, "registered_name": null}, "gamma_initializer": {"module": "keras.initializers", "class_name": "Ones", "config": {}, "registered_name": null}, "moving_mean_initializer": {"module": "keras.initializers", "class_name": "Zeros", "config": {}, "registered_name": null}, "moving_variance_initializer": {"module": "keras.initializers", "class_name": "Ones", "config": {}, "registered_name": null}, "beta_regularizer": null, "gamma_regularizer": null, "beta_constraint": null, "gamma_constraint": null}, "registered_name": null, "build_config": {"input_shape": [null, 12, 12, 544]}, "name": "conv4_block10_0_bn", "inbound_nodes": [[["conv4_block9_concat", 0, 0, {}]]]}, {"module": "keras.layers", "class_name": "Activation", "config": {"name": "conv4_block10_0_relu", "trainable": false, "dtype": "float32", "activation": "relu"}, "registered_name": null, "build_config": {"input_shape": [null, 12, 12, 544]}, "name": "conv4_block10_0_relu", "inbound_nodes": [[["conv4_block10_0_bn", 0, 0, {}]]]}, {"module": "keras.layers", "class_name": "Conv2D", "config": {"name": "conv4_block10_1_conv", "trainable": false, "dtype": "float32", "filters": 128, "kernel_size": [1, 1], "strides": [1, 1], "padding": "valid", "data_format": "channels_last", "dilation_rate": [1, 1], "groups": 1, "activation": "linear", "use_bias": false, "kernel_initializer": {"module": "keras.initializers", "class_name": "GlorotUniform", "config": {"seed": null}, "registered_name": null}, "bias_initializer": {"module": "keras.initializers", "class_name": "Zeros", "config": {}, "registered_name": null}, "kernel_regularizer": null, "bias_regularizer": null, "activity_regularizer": null, "kernel_constraint": null, "bias_constraint": null}, "registered_name": null, "build_config": {"input_shape": [null, 12, 12, 544]}, "name": "conv4_block10_1_conv", "inbound_nodes": [[["conv4_block10_0_relu", 0, 0, {}]]]}, {"module": "keras.layers", "class_name": "BatchNormalization", "config": {"name": "conv4_block10_1_bn", "trainable": false, "dtype": "float32", "axis": [3], "momentum": 0.99, "epsilon": 1.001e-05, "center": true, "scale": true, "beta_initializer": {"module": "keras.initializers", "class_name": "Zeros", "config": {}, "registered_name": null}, "gamma_initializer": {"module": "keras.initializers", "class_name": "Ones", "config": {}, "registered_name": null}, "moving_mean_initializer": {"module": "keras.initializers", "class_name": "Zeros", "config": {}, "registered_name": null}, "moving_variance_initializer": {"module": "keras.initializers", "class_name": "Ones", "config": {}, "registered_name": null}, "beta_regularizer": null, "gamma_regularizer": null, "beta_constraint": null, "gamma_constraint": null}, "registered_name": null, "build_config": {"input_shape": [null, 12, 12, 128]}, "name": "conv4_block10_1_bn", "inbound_nodes": [[["conv4_block10_1_conv", 0, 0, {}]]]}, {"module": "keras.layers", "class_name": "Activation", "config": {"name": "conv4_block10_1_relu", "trainable": false, "dtype": "float32", "activation": "relu"}, "registered_name": null, "build_config": {"input_shape": [null, 12, 12, 128]}, "name": "conv4_block10_1_relu", "inbound_nodes": [[["conv4_block10_1_bn", 0, 0, {}]]]}, {"module": "keras.layers", "class_name": "Conv2D", "config": {"name": "conv4_block10_2_conv", "trainable": false, "dtype": "float32", "filters": 32, "kernel_size": [3, 3], "strides": [1, 1], "padding": "same", "data_format": "channels_last", "dilation_rate": [1, 1], "groups": 1, "activation": "linear", "use_bias": false, "kernel_initializer": {"module": "keras.initializers", "class_name": "GlorotUniform", "config": {"seed": null}, "registered_name": null}, "bias_initializer": {"module": "keras.initializers", "class_name": "Zeros", "config": {}, "registered_name": null}, "kernel_regularizer": null, "bias_regularizer": null, "activity_regularizer": null, "kernel_constraint": null, "bias_constraint": null}, "registered_name": null, "build_config": {"input_shape": [null, 12, 12, 128]}, "name": "conv4_block10_2_conv", "inbound_nodes": [[["conv4_block10_1_relu", 0, 0, {}]]]}, {"module": "keras.layers", "class_name": "Concatenate", "config": {"name": "conv4_block10_concat", "trainable": false, "dtype": "float32", "axis": 3}, "registered_name": null, "build_config": {"input_shape": [[null, 12, 12, 544], [null, 12, 12, 32]]}, "name": "conv4_block10_concat", "inbound_nodes": [[["conv4_block9_concat", 0, 0, {}], ["conv4_block10_2_conv", 0, 0, {}]]]}, {"module": "keras.layers", "class_name": "BatchNormalization", "config": {"name": "conv4_block11_0_bn", "trainable": false, "dtype": "float32", "axis": [3], "momentum": 0.99, "epsilon": 1.001e-05, "center": true, "scale": true, "beta_initializer": {"module": "keras.initializers", "class_name": "Zeros", "config": {}, "registered_name": null}, "gamma_initializer": {"module": "keras.initializers", "class_name": "Ones", "config": {}, "registered_name": null}, "moving_mean_initializer": {"module": "keras.initializers", "class_name": "Zeros", "config": {}, "registered_name": null}, "moving_variance_initializer": {"module": "keras.initializers", "class_name": "Ones", "config": {}, "registered_name": null}, "beta_regularizer": null, "gamma_regularizer": null, "beta_constraint": null, "gamma_constraint": null}, "registered_name": null, "build_config": {"input_shape": [null, 12, 12, 576]}, "name": "conv4_block11_0_bn", "inbound_nodes": [[["conv4_block10_concat", 0, 0, {}]]]}, {"module": "keras.layers", "class_name": "Activation", "config": {"name": "conv4_block11_0_relu", "trainable": false, "dtype": "float32", "activation": "relu"}, "registered_name": null, "build_config": {"input_shape": [null, 12, 12, 576]}, "name": "conv4_block11_0_relu", "inbound_nodes": [[["conv4_block11_0_bn", 0, 0, {}]]]}, {"module": "keras.layers", "class_name": "Conv2D", "config": {"name": "conv4_block11_1_conv", "trainable": false, "dtype": "float32", "filters": 128, "kernel_size": [1, 1], "strides": [1, 1], "padding": "valid", "data_format": "channels_last", "dilation_rate": [1, 1], "groups": 1, "activation": "linear", "use_bias": false, "kernel_initializer": {"module": "keras.initializers", "class_name": "GlorotUniform", "config": {"seed": null}, "registered_name": null}, "bias_initializer": {"module": "keras.initializers", "class_name": "Zeros", "config": {}, "registered_name": null}, "kernel_regularizer": null, "bias_regularizer": null, "activity_regularizer": null, "kernel_constraint": null, "bias_constraint": null}, "registered_name": null, "build_config": {"input_shape": [null, 12, 12, 576]}, "name": "conv4_block11_1_conv", "inbound_nodes": [[["conv4_block11_0_relu", 0, 0, {}]]]}, {"module": "keras.layers", "class_name": "BatchNormalization", "config": {"name": "conv4_block11_1_bn", "trainable": false, "dtype": "float32", "axis": [3], "momentum": 0.99, "epsilon": 1.001e-05, "center": true, "scale": true, "beta_initializer": {"module": "keras.initializers", "class_name": "Zeros", "config": {}, "registered_name": null}, "gamma_initializer": {"module": "keras.initializers", "class_name": "Ones", "config": {}, "registered_name": null}, "moving_mean_initializer": {"module": "keras.initializers", "class_name": "Zeros", "config": {}, "registered_name": null}, "moving_variance_initializer": {"module": "keras.initializers", "class_name": "Ones", "config": {}, "registered_name": null}, "beta_regularizer": null, "gamma_regularizer": null, "beta_constraint": null, "gamma_constraint": null}, "registered_name": null, "build_config": {"input_shape": [null, 12, 12, 128]}, "name": "conv4_block11_1_bn", "inbound_nodes": [[["conv4_block11_1_conv", 0, 0, {}]]]}, {"module": "keras.layers", "class_name": "Activation", "config": {"name": "conv4_block11_1_relu", "trainable": false, "dtype": "float32", "activation": "relu"}, "registered_name": null, "build_config": {"input_shape": [null, 12, 12, 128]}, "name": "conv4_block11_1_relu", "inbound_nodes": [[["conv4_block11_1_bn", 0, 0, {}]]]}, {"module": "keras.layers", "class_name": "Conv2D", "config": {"name": "conv4_block11_2_conv", "trainable": false, "dtype": "float32", "filters": 32, "kernel_size": [3, 3], "strides": [1, 1], "padding": "same", "data_format": "channels_last", "dilation_rate": [1, 1], "groups": 1, "activation": "linear", "use_bias": false, "kernel_initializer": {"module": "keras.initializers", "class_name": "GlorotUniform", "config": {"seed": null}, "registered_name": null}, "bias_initializer": {"module": "keras.initializers", "class_name": "Zeros", "config": {}, "registered_name": null}, "kernel_regularizer": null, "bias_regularizer": null, "activity_regularizer": null, "kernel_constraint": null, "bias_constraint": null}, "registered_name": null, "build_config": {"input_shape": [null, 12, 12, 128]}, "name": "conv4_block11_2_conv", "inbound_nodes": [[["conv4_block11_1_relu", 0, 0, {}]]]}, {"module": "keras.layers", "class_name": "Concatenate", "config": {"name": "conv4_block11_concat", "trainable": false, "dtype": "float32", "axis": 3}, "registered_name": null, "build_config": {"input_shape": [[null, 12, 12, 576], [null, 12, 12, 32]]}, "name": "conv4_block11_concat", "inbound_nodes": [[["conv4_block10_concat", 0, 0, {}], ["conv4_block11_2_conv", 0, 0, {}]]]}, {"module": "keras.layers", "class_name": "BatchNormalization", "config": {"name": "conv4_block12_0_bn", "trainable": false, "dtype": "float32", "axis": [3], "momentum": 0.99, "epsilon": 1.001e-05, "center": true, "scale": true, "beta_initializer": {"module": "keras.initializers", "class_name": "Zeros", "config": {}, "registered_name": null}, "gamma_initializer": {"module": "keras.initializers", "class_name": "Ones", "config": {}, "registered_name": null}, "moving_mean_initializer": {"module": "keras.initializers", "class_name": "Zeros", "config": {}, "registered_name": null}, "moving_variance_initializer": {"module": "keras.initializers", "class_name": "Ones", "config": {}, "registered_name": null}, "beta_regularizer": null, "gamma_regularizer": null, "beta_constraint": null, "gamma_constraint": null}, "registered_name": null, "build_config": {"input_shape": [null, 12, 12, 608]}, "name": "conv4_block12_0_bn", "inbound_nodes": [[["conv4_block11_concat", 0, 0, {}]]]}, {"module": "keras.layers", "class_name": "Activation", "config": {"name": "conv4_block12_0_relu", "trainable": false, "dtype": "float32", "activation": "relu"}, "registered_name": null, "build_config": {"input_shape": [null, 12, 12, 608]}, "name": "conv4_block12_0_relu", "inbound_nodes": [[["conv4_block12_0_bn", 0, 0, {}]]]}, {"module": "keras.layers", "class_name": "Conv2D", "config": {"name": "conv4_block12_1_conv", "trainable": false, "dtype": "float32", "filters": 128, "kernel_size": [1, 1], "strides": [1, 1], "padding": "valid", "data_format": "channels_last", "dilation_rate": [1, 1], "groups": 1, "activation": "linear", "use_bias": false, "kernel_initializer": {"module": "keras.initializers", "class_name": "GlorotUniform", "config": {"seed": null}, "registered_name": null}, "bias_initializer": {"module": "keras.initializers", "class_name": "Zeros", "config": {}, "registered_name": null}, "kernel_regularizer": null, "bias_regularizer": null, "activity_regularizer": null, "kernel_constraint": null, "bias_constraint": null}, "registered_name": null, "build_config": {"input_shape": [null, 12, 12, 608]}, "name": "conv4_block12_1_conv", "inbound_nodes": [[["conv4_block12_0_relu", 0, 0, {}]]]}, {"module": "keras.layers", "class_name": "BatchNormalization", "config": {"name": "conv4_block12_1_bn", "trainable": false, "dtype": "float32", "axis": [3], "momentum": 0.99, "epsilon": 1.001e-05, "center": true, "scale": true, "beta_initializer": {"module": "keras.initializers", "class_name": "Zeros", "config": {}, "registered_name": null}, "gamma_initializer": {"module": "keras.initializers", "class_name": "Ones", "config": {}, "registered_name": null}, "moving_mean_initializer": {"module": "keras.initializers", "class_name": "Zeros", "config": {}, "registered_name": null}, "moving_variance_initializer": {"module": "keras.initializers", "class_name": "Ones", "config": {}, "registered_name": null}, "beta_regularizer": null, "gamma_regularizer": null, "beta_constraint": null, "gamma_constraint": null}, "registered_name": null, "build_config": {"input_shape": [null, 12, 12, 128]}, "name": "conv4_block12_1_bn", "inbound_nodes": [[["conv4_block12_1_conv", 0, 0, {}]]]}, {"module": "keras.layers", "class_name": "Activation", "config": {"name": "conv4_block12_1_relu", "trainable": false, "dtype": "float32", "activation": "relu"}, "registered_name": null, "build_config": {"input_shape": [null, 12, 12, 128]}, "name": "conv4_block12_1_relu", "inbound_nodes": [[["conv4_block12_1_bn", 0, 0, {}]]]}, {"module": "keras.layers", "class_name": "Conv2D", "config": {"name": "conv4_block12_2_conv", "trainable…
ass_name": "GlorotUniform", "config": {"seed": null}, "registered_name": null}, "bias_initializer": {"module": "keras.initializers", "class_name": "Zeros", "config": {}, "registered_name": null}, "kernel_regularizer": null, "bias_regularizer": null, "activity_regularizer": null, "kernel_constraint": null, "bias_constraint": null}, "registered_name": null, "build_config": {"input_shape": [null, 6, 6, 128]}, "name": "conv5_block6_2_conv", "inbound_nodes": [[["conv5_block6_1_relu", 0, 0, {}]]]}, {"module": "keras.layers", "class_name": "Concatenate", "config": {"name": "conv5_block6_concat", "trainable": false, "dtype": "float32", "axis": 3}, "registered_name": null, "build_config": {"input_shape": [[null, 6, 6, 672], [null, 6, 6, 32]]}, "name": "conv5_block6_concat", "inbound_nodes": [[["conv5_block5_concat", 0, 0, {}], ["conv5_block6_2_conv", 0, 0, {}]]]}, {"module": "keras.layers", "class_name": "BatchNormalization", "config": {"name": "conv5_block7_0_bn", "trainable": false, "dtype": "float32", "axis": [3], "momentum": 0.99, "epsilon": 1.001e-05, "center": true, "scale": true, "beta_initializer": {"module": "keras.initializers", "class_name": "Zeros", "config": {}, "registered_name": null}, "gamma_initializer": {"module": "keras.initializers", "class_name": "Ones", "config": {}, "registered_name": null}, "moving_mean_initializer": {"module": "keras.initializers", "class_name": "Zeros", "config": {}, "registered_name": null}, "moving_variance_initializer": {"module": "keras.initializers", "class_name": "Ones", "config": {}, "registered_name": null}, "beta_regularizer": null, "gamma_regularizer": null, "beta_constraint": null, "gamma_constraint": null}, "registered_name": null, "build_config": {"input_shape": [null, 6, 6, 704]}, "name": "conv5_block7_0_bn", "inbound_nodes": [[["conv5_block6_concat", 0, 0, {}]]]}, {"module": "keras.layers", "class_name": "Activation", "config": {"name": "conv5_block7_0_relu", "trainable": false, "dtype": "float32", "activation": "relu"}, "registered_name": null, "build_config": {"input_shape": [null, 6, 6, 704]}, "name": "conv5_block7_0_relu", "inbound_nodes": [[["conv5_block7_0_bn", 0, 0, {}]]]}, {"module": "keras.layers", "class_name": "Conv2D", "config": {"name": "conv5_block7_1_conv", "trainable": false, "dtype": "float32", "filters": 128, "kernel_size": [1, 1], "strides": [1, 1], "padding": "valid", "data_format": "channels_last", "dilation_rate": [1, 1], "groups": 1, "activation": "linear", "use_bias": false, "kernel_initializer": {"module": "keras.initializers", "class_name": "GlorotUniform", "config": {"seed": null}, "registered_name": null}, "bias_initializer": {"module": "keras.initializers", "class_name": "Zeros", "config": {}, "registered_name": null}, "kernel_regularizer": null, "bias_regularizer": null, "activity_regularizer": null, "kernel_constraint": null, "bias_constraint": null}, "registered_name": null, "build_config": {"input_shape": [null, 6, 6, 704]}, "name": "conv5_block7_1_conv", "inbound_nodes": [[["conv5_block7_0_relu", 0, 0, {}]]]}, {"module": "keras.layers", "class_name": "BatchNormalization", "config": {"name": "conv5_block7_1_bn", "trainable": false, "dtype": "float32", "axis": [3], "momentum": 0.99, "epsilon": 1.001e-05, "center": true, "scale": true, "beta_initializer": {"module": "keras.initializers", "class_name": "Zeros", "config": {}, "registered_name": null}, "gamma_initializer": {"module": "keras.initializers", "class_name": "Ones", "config": {}, "registered_name": null}, "moving_mean_initializer": {"module": "keras.initializers", "class_name": "Zeros", "config": {}, "registered_name": null}, "moving_variance_initializer": {"module": "keras.initializers", "class_name": "Ones", "config": {}, "registered_name": null}, "beta_regularizer": null, "gamma_regularizer": null, "beta_constraint": null, "gamma_constraint": null}, "registered_name": null, "build_config": {"input_shape": [null, 6, 6, 128]}, "name": "conv5_block7_1_bn", "inbound_nodes": [[["conv5_block7_1_conv", 0, 0, {}]]]}, {"module": "keras.layers", "class_name": "Activation", "config": {"name": "conv5_block7_1_relu", "trainable": false, "dtype": "float32", "activation": "relu"}, "registered_name": null, "build_config": {"input_shape": [null, 6, 6, 128]}, "name": "conv5_block7_1_relu", "inbound_nodes": [[["conv5_block7_1_bn", 0, 0, {}]]]}, {"module": "keras.layers", "class_name": "Conv2D", "config": {"name": "conv5_block7_2_conv", "trainable": false, "dtype": "float32", "filters": 32, "kernel_size": [3, 3], "strides": [1, 1], "padding": "same", "data_format": "channels_last", "dilation_rate": [1, 1], "groups": 1, "activation": "linear", "use_bias": false, "kernel_initializer": {"module": "keras.initializers", "class_name": "GlorotUniform", "config": {"seed": null}, "registered_name": null}, "bias_initializer": {"module": "keras.initializers", "class_name": "Zeros", "config": {}, "registered_name": null}, "kernel_regularizer": null, "bias_regularizer": null, "activity_regularizer": null, "kernel_constraint": null, "bias_constraint": null}, "registered_name": null, "build_config": {"input_shape": [null, 6, 6, 128]}, "name": "conv5_block7_2_conv", "inbound_nodes": [[["conv5_block7_1_relu", 0, 0, {}]]]}, {"module": "keras.layers", "class_name": "Concatenate", "config": {"name": "conv5_block7_concat", "trainable": false, "dtype": "float32", "axis": 3}, "registered_name": null, "build_config": {"input_shape": [[null, 6, 6, 704], [null, 6, 6, 32]]}, "name": "conv5_block7_concat", "inbound_nodes": [[["conv5_block6_concat", 0, 0, {}], ["conv5_block7_2_conv", 0, 0, {}]]]}, {"module": "keras.layers", "class_name": "BatchNormalization", "config": {"name": "conv5_block8_0_bn", "trainable": false, "dtype": "float32", "axis": [3], "momentum": 0.99, "epsilon": 1.001e-05, "center": true, "scale": true, "beta_initializer": {"module": "keras.initializers", "class_name": "Zeros", "config": {}, "registered_name": null}, "gamma_initializer": {"module": "keras.initializers", "class_name": "Ones", "config": {}, "registered_name": null}, "moving_mean_initializer": {"module": "keras.initializers", "class_name": "Zeros", "config": {}, "registered_name": null}, "moving_variance_initializer": {"module": "keras.initializers", "class_name": "Ones", "config": {}, "registered_name": null}, "beta_regularizer": null, "gamma_regularizer": null, "beta_constraint": null, "gamma_constraint": null}, "registered_name": null, "build_config": {"input_shape": [null, 6, 6, 736]}, "name": "conv5_block8_0_bn", "inbound_nodes": [[["conv5_block7_concat", 0, 0, {}]]]}, {"module": "keras.layers", "class_name": "Activation", "config": {"name": "conv5_block8_0_relu", "trainable": false, "dtype": "float32", "activation": "relu"}, "registered_name": null, "build_config": {"input_shape": [null, 6, 6, 736]}, "name": "conv5_block8_0_relu", "inbound_nodes": [[["conv5_block8_0_bn", 0, 0, {}]]]}, {"module": "keras.layers", "class_name": "Conv2D", "config": {"name": "conv5_block8_1_conv", "trainable": false, "dtype": "float32", "filters": 128, "kernel_size": [1, 1], "strides": [1, 1], "padding": "valid", "data_format": "channels_last", "dilation_rate": [1, 1], "groups": 1, "activation": "linear", "use_bias": false, "kernel_initializer": {"module": "keras.initializers", "class_name": "GlorotUniform", "config": {"seed": null}, "registered_name": null}, "bias_initializer": {"module": "keras.initializers", "class_name": "Zeros", "config": {}, "registered_name": null}, "kernel_regularizer": null, "bias_regularizer": null, "activity_regularizer": null, "kernel_constraint": null, "bias_constraint": null}, "registered_name": null, "build_config": {"input_shape": [null, 6, 6, 736]}, "name": "conv5_block8_1_conv", "inbound_nodes": [[["conv5_block8_0_relu", 0, 0, {}]]]}, {"module": "keras.layers", "class_name": "BatchNormalization", "config": {"name": "conv5_block8_1_bn", "trainable": false, "dtype": "float32", "axis": [3], "momentum": 0.99, "epsilon": 1.001e-05, "center": true, "scale": true, "beta_initializer": {"module": "keras.initializers", "class_name": "Zeros", "config": {}, "registered_name": null}, "gamma_initializer": {"module": "keras.initializers", "class_name": "Ones", "config": {}, "registered_name": null}, "moving_mean_initializer": {"module": "keras.initializers", "class_name": "Zeros", "config": {}, "registered_name": null}, "moving_variance_initializer": {"module": "keras.initializers", "class_name": "Ones", "config": {}, "registered_name": null}, "beta_regularizer": null, "gamma_regularizer": null, "beta_constraint": null, "gamma_constraint": null}, "registered_name": null, "build_config": {"input_shape": [null, 6, 6, 128]}, "name": "conv5_block8_1_bn", "inbound_nodes": [[["conv5_block8_1_conv", 0, 0, {}]]]}, {"module": "keras.layers", "class_name": "Activation", "config": {"name": "conv5_block8_1_relu", "trainable": false, "dtype": "float32", "activation": "relu"}, "registered_name": null, "build_config": {"input_shape": [null, 6, 6, 128]}, "name": "conv5_block8_1_relu", "inbound_nodes": [[["conv5_block8_1_bn", 0, 0, {}]]]}, {"module": "keras.layers", "class_name": "Conv2D", "config": {"name": "conv5_block8_2_conv", "trainable": false, "dtype": "float32", "filters": 32, "kernel_size": [3, 3], "strides": [1, 1], "padding": "same", "data_format": "channels_last", "dilation_rate": [1, 1], "groups": 1, "activation": "linear", "use_bias": false, "kernel_initializer": {"module": "keras.initializers", "class_name": "GlorotUniform", "config": {"seed": null}, "registered_name": null}, "bias_initializer": {"module": "keras.initializers", "class_name": "Zeros", "config": {}, "registered_name": null}, "kernel_regularizer": null, "bias_regularizer": null, "activity_regularizer": null, "kernel_constraint": null, "bias_constraint": null}, "registered_name": null, "build_config": {"input_shape": [null, 6, 6, 128]}, "name": "conv5_block8_2_conv", "inbound_nodes": [[["conv5_block8_1_relu", 0, 0, {}]]]}, {"module": "keras.layers", "class_name": "Concatenate", "config": {"name": "conv5_block8_concat", "trainable": false, "dtype": "float32", "axis": 3}, "registered_name": null, "build_config": {"input_shape": [[null, 6, 6, 736], [null, 6, 6, 32]]}, "name": "conv5_block8_concat", "inbound_nodes": [[["conv5_block7_concat", 0, 0, {}], ["conv5_block8_2_conv", 0, 0, {}]]]}, {"module": "keras.layers", "class_name": "BatchNormalization", "config": {"name": "conv5_block9_0_bn", "trainable": false, "dtype": "float32", "axis": [3], "momentum": 0.99, "epsilon": 1.001e-05, "center": true, "scale": true, "beta_initializer": {"module": "keras.initializers", "class_name": "Zeros", "config": {}, "registered_name": null}, "gamma_initializer": {"module": "keras.initializers", "class_name": "Ones", "config": {}, "registered_name": null}, "moving_mean_initializer": {"module": "keras.initializers", "class_name": "Zeros", "config": {}, "registered_name": null}, "moving_variance_initializer": {"module": "keras.initializers", "class_name": "Ones", "config": {}, "registered_name": null}, "beta_regularizer": null, "gamma_regularizer": null, "beta_constraint": null, "gamma_constraint": null}, "registered_name": null, "build_config": {"input_shape": [null, 6, 6, 768]}, "name": "conv5_block9_0_bn", "inbound_nodes": [[["conv5_block8_concat", 0, 0, {}]]]}, {"module": "keras.layers", "class_name": "Activation", "config": {"name": "conv5_block9_0_relu", "trainable": false, "dtype": "float32", "activation": "relu"}, "registered_name": null, "build_config": {"input_shape": [null, 6, 6, 768]}, "name": "conv5_block9_0_relu", "inbound_nodes": [[["conv5_block9_0_bn", 0, 0, {}]]]}, {"module": "keras.layers", "class_name": "Conv2D", "config": {"name": "conv5_block9_1_conv", "trainable": false, "dtype": "float32", "filters": 128, "kernel_size": [1, 1], "strides": [1, 1], "padding": "valid", "data_format": "channels_last", "dilation_rate": [1, 1], "groups": 1, "activation": "linear", "use_bias": false, "kernel_initializer": {"module": "keras.initializers", "class_name": "GlorotUniform", "config": {"seed": null}, "registered_name": null}, "bias_initializer": {"module": "keras.initializers", "class_name": "Zeros", "config": {}, "registered_name": null}, "kernel_regularizer": null, "bias_regularizer": null, "activity_regularizer": null, "kernel_constraint": null, "bias_constraint": null}, "registered_name": null, "build_config": {"input_shape": [null, 6, 6, 768]}, "name": "conv5_block9_1_conv", "inbound_nodes": [[["conv5_block9_0_relu", 0, 0, {}]]]}, {"module": "keras.layers", "class_name": "BatchNormalization", "config": {"name": "conv5_block9_1_bn", "trainable": false, "dtype": "float32", "axis": [3], "momentum": 0.99, "epsilon": 1.001e-05, "center": true, "scale": true, "beta_initializer": {"module": "keras.initializers", "class_name": "Zeros", "config": {}, "registered_name": null}, "gamma_initializer": {"module": "keras.initializers", "class_name": "Ones", "config": {}, "registered_name": null}, "moving_mean_initializer": {"module": "keras.initializers", "class_name": "Zeros", "config": {}, "registered_name": null}, "moving_variance_initializer": {"module": "keras.initializers", "class_name": "Ones", "config": {}, "registered_name": null}, "beta_regularizer": null, "gamma_regularizer": null, "beta_constraint": null, "gamma_constraint": null}, "registered_name": null, "build_config": {"input_shape": [null, 6, 6, 128]}, "name": "conv5_block9_1_bn", "inbound_nodes": [[["conv5_block9_1_conv", 0, 0, {}]]]}, {"module": "keras.layers", "class_name": "Activation", "config": {"name": "conv5_block9_1_relu", "trainable": false, "dtype": "float32", "activation": "relu"}, "registered_name": null, "build_config": {"input_shape": [null, 6, 6, 128]}, "name": "conv5_block9_1_relu", "inbound_nodes": [[["conv5_block9_1_bn", 0, 0, {}]]]}, {"module": "keras.layers", "class_name": "Conv2D", "config": {"name": "conv5_block9_2_conv", "trainable": false, "dtype": "float32", "filters": 32, "kernel_size": [3, 3], "strides": [1, 1], "padding": "same", "data_format": "channels_last", "dilation_rate": [1, 1], "groups": 1, "activation": "linear", "use_bias": false, "kernel_initializer": {"module": "keras.initializers", "class_name": "GlorotUniform", "config": {"seed": null}, "registered_name": null}, "bias_initializer": {"module": "keras.initializers", "class_name": "Zeros", "config": {}, "registered_name": null}, "kernel_regularizer": null, "bias_regularizer": null, "activity_regularizer": null, "kernel_constraint": null, "bias_constraint": null}, "registered_name": null, "build_config": {"input_shape": [null, 6, 6, 128]}, "name": "conv5_block9_2_conv", "inbound_nodes": [[["conv5_block9_1_relu", 0, 0, {}]]]}, {"module": "keras.layers", "class_name": "Concatenate", "config": {"name": "conv5_block9_concat", "trainable": false, "dtype": "float32", "axis": 3}, "registered_name": null, "build_config": {"input_shape": [[null, 6, 6, 768], [null, 6, 6, 32]]}, "name": "conv5_block9_concat", "inbound_nodes": [[["conv5_block8_concat", 0, 0, {}], ["conv5_block9_2_conv", 0, 0, {}]]]}, {"module": "keras.layers", "class_name": "BatchNormalization", "config": {"name": "conv5_block10_0_bn", "trainable": false, "dtype": "float32", "axis": [3], "momentum": 0.99, "epsilon": 1.001e-05, "center": true, "scale": true, "beta_initializer": {"module": "keras.initializers", "class_name": "Zeros", "config": {}, "registered_name": null}, "gamma_initializer": {"module": "keras.initializers", "class_name": "Ones", "config": {}, "registered_name": null}, "moving_mean_initializer": {"module": "keras.initializers", "class_name": "Zeros", "config": {}, "registered_name": null}, "moving_variance_initializer": {"module": "keras.initializers", "class_name": "Ones", "config": {}, "registered_name": null}, "beta_regularizer": null, "gamma_regularizer": null, "beta_constraint": null, "gamma_constraint": null}, "registered_name": null, "build_config": {"input_shape": [null, 6, 6, 800]}, "name": "conv5_block10_0_bn", "inbound_nodes": [[["conv5_block9_concat", 0, 0, {}]]]}, {"module": "keras.layers", "class_name": "Activation", "config": {"name": "conv5_block10_0_relu", "trainable": false, "dtype": "float32", "activation": "relu"}, "registered_name": null, "build_config": {"input_shape": [null, 6, 6, 800]}, "name": "conv5_block10_0_relu", "inbound_nodes": [[["conv5_block10_0_bn", 0, 0, {}]]]}, {"module": "keras.layers", "class_name": "Conv2D", "config": {"name": "conv5_block10_1_conv", "trainable": false, "dtype": "float32", "filters": 128, "kernel_size": [1, 1], "strides": [1, 1], "padding": "valid", "data_format": "channels_last", "dilation_rate": [1, 1], "groups": 1, "activation": "linear", "use_bias": false, "kernel_initializer": {"module": "keras.initializers", "class_name": "GlorotUniform", "config": {"seed": null}, "registered_name": null}, "bias_initializer": {"module": "keras.initializers", "class_name": "Zeros", "config": {}, "registered_name": null}, "kernel_regularizer": null, "bias_regularizer": null, "activity_regularizer": null, "kernel_constraint": null, "bias_constraint": null}, "registered_name": null, "build_config": {"input_shape": [null, 6, 6, 800]}, "name": "conv5_block10_1_conv", "inbound_nodes": [[["conv5_block10_0_relu", 0, 0, {}]]]}, {"module": "keras.layers", "class_name": "BatchNormalization", "config": {"name": "conv5_block10_1_bn", "trainable": false, "dtype": "float32", "axis": [3], "momentum": 0.99, "epsilon": 1.001e-05, "center": true, "scale": true, "beta_initializer": {"module": "keras.initializers", "class_name": "Zeros", "config": {}, "registered_name": null}, "gamma_initializer": {"module": "keras.initializers", "class_name": "Ones", "config": {}, "registered_name": null}, "moving_mean_initializer": {"module": "keras.initializers", "class_name": "Zeros", "config": {}, "registered_name": null}, "moving_variance_initializer": {"module": "keras.initializers", "class_name": "Ones", "config": {}, "registered_name": null}, "beta_regularizer": null, "gamma_regularizer": null, "beta_constraint": null, "gamma_constraint": null}, "registered_name": null, "build_config": {"input_shape": [null, 6, 6, 128]}, "name": "conv5_block10_1_bn", "inbound_nodes": [[["conv5_block10_1_conv", 0, 0, {}]]]}, {"module": "keras.layers", "class_name": "Activation", "config": {"name": "conv5_block10_1_relu", "trainable": false, "dtype": "float32", "activation": "relu"}, "registered_name": null, "build_config": {"input_shape": [null, 6, 6, 128]}, "name": "conv5_block10_1_relu", "inbound_nodes": [[["conv5_block10_1_bn", 0, 0, {}]]]}, {"module": "keras.layers", "class_name": "Conv2D", "config": {"name": "conv5_block10_2_conv", "trainable": false, "dtype": "float32", "filters": 32, "kernel_size": [3, 3], "strides": [1, 1], "padding": "same", "data_format": "channels_last", "dilation_rate": [1, 1], "groups": 1, "activation": "linear", "use_bias": false, "kernel_initializer": {"module": "keras.initializers", "class_name": "GlorotUniform", "config": {"seed": null}, "registered_name": null}, "bias_initializer": {"module": "keras.initializers", "class_name": "Zeros", "config": {}, "registered_name": null}, "kernel_regularizer": null, "bias_regularizer": null, "activity_regularizer": null, "kernel_constraint": null, "bias_constraint": null}, "registered_name": null, "build_config": {"input_shape": [null, 6, 6, 128]}, "name": "conv5_block10_2_conv", "inbound_nodes": [[["conv5_block10_1_relu", 0, 0, {}]]]}, {"module": "keras.layers", "class_name": "Concatenate", "config": {"name": "conv5_block10_concat", "trainable": false, "dtype": "float32", "axis": 3}, "registered_name": null, "build_config": {"input_shape": [[null, 6, 6, 800], [null, 6, 6, 32]]}, "name": "conv5_block10_concat", "inbound_nodes": [[["conv5_block9_concat", 0, 0, {}], ["conv5_block10_2_conv", 0, 0, {}]]]}, {"module": "keras.layers", "class_name": "BatchNormalization", "config": {"name": "conv5_block11_0_bn", "trainable": false, "dtype": "float32", "axis": [3], "momentum": 0.99, "epsilon": 1.001e-05, "center": true, "scale": true, "beta_initializer": {"module": "keras.initializers", "class_name": "Zeros", "config": {}, "registered_name": null}, "gamma_initializer": {"module": "keras.initializers", "class_name": "Ones", "config": {}, "registered_name": null}, "moving_mean_initializer": {"module": "keras.initializers", "class_name": "Zeros", "config": {}, "registered_name": null}, "moving_variance_initializer": {"module": "keras.initializers", "class_name": "Ones", "config": {}, "registered_name": null}, "beta_regularizer": null, "gamma_regularizer": null, "beta_constraint": null, "gamma_constraint": null}, "registered_name": null, "build_config": {"input_shape": [null, 6, 6, 832]}, "name": "conv5_block11_0_bn", "inbound_nodes": [[["conv5_block10_concat", 0, 0, {}]]]}, {"module": "keras.layers", "class_name": "Activation", "config": {"name": "conv5_block11_0_relu", "trainable": false, "dtype": "float32", "activation": "relu"}, "registered_name": null, "build_config": {"input_shape": [null, 6, 6, 832]}, "name": "conv5_block11_0_relu", "inbound_nodes": [[["conv5_block11_0_bn", 0, 0, {}]]]}, {"module": "keras.layers", "class_name": "Conv2D", "config": {"name": "conv5_block11_1_conv", "trainable": false, "dtype": "float32", "filters": 128, "kernel_size": [1, 1], "strides": [1, 1], "padding": "valid", "data_format": "channels_last", "dilation_rate": [1, 1], "groups": 1, "activation": "linear", "use_bias": false, "kernel_initializer": {"module": "keras.initializers", "class_name": "GlorotUniform", "config": {"seed": null}, "registered_name": null}, "bias_initializer": {"module": "keras.initializers", "class_name": "Zeros", "config": {}, "registered_name": null}, "kernel_regularizer": null, "bias_regularizer": null, "activity_regularizer": null, "kernel_constraint": null, "bias_constraint": null}, "registered_name": null, "build_config": {"input_shape": [null, 6, 6, 832]}, "name": "conv5_block11_1_conv", "inbound_nodes": [[["conv5_block11_0_relu", 0, 0, {}]]]}, {"module": "keras.layers", "class_name": "BatchNormalization", "config": {"name": "conv5_block11_1_bn", "trainable": false, "dtype": "float32", "axis": [3], "momentum": 0.99, "epsilon": 1.001e-05, "center": true, "scale": true, "beta_initializer": {"module": "keras.initializers", "class_name": "Zeros", "config": {}, "registered_name": null}, "gamma_initializer": {"module": "keras.initializers", "class_name": "Ones", "config": {}, "registered_name": null}, "moving_mean_initializer": {"module": "keras.initializers", "class_name": "Zeros", "config": {}, "registered_name": null}, "moving_variance_initializer": {"module": "keras.initializers", "class_name": "Ones", "config": {}, "registered_name": null}, "beta_regularizer": null, "gamma_regularizer": null, "beta_constraint": null, "gamma_constraint": null}, "registered_name": null, "build_config": {"input_shape": [null, 6, 6, 128]}, "name": "conv5_block11_1_bn", "inbound_nodes": [[["conv5_block11_1_conv", 0, 0, {}]]]}, {"module": "keras.layers", "class_name": "Activation", "config": {"name": "conv5_block11_1_relu", "trainable": false, "dtype": "float32", "activation": "relu"}, "registered_name": null, "build_config": {"input_shape": [null, 6, 6, 128]}, "name": "conv5_block11_1_relu", "inbound_nodes": [[["conv5_block11_1_bn", 0, 0, {}]]]}, {"module": "keras.layers", "class_name": "Conv2D", "config": {"name": "conv5_block11_2_conv", "trainable": false, "dtype": "float32", "filters": 32, "kernel_size": [3, 3], "strides": [1, 1], "padding": "same", "data_format": "channels_last", "dilation_rate": [1, 1], "groups": 1, "activation": "linear", "use_bias": false, "kernel_initializer": {"module": "keras.initializers", "class_name": "GlorotUniform", "config": {"seed": null}, "registered_name": null}, "bias_initializer": {"module": "keras.initializers", "class_name": "Zeros", "config": {}, "registered_name": null}, "kernel_regularizer": null, "bias_regularizer": null, "activity_regularizer": null, "kernel_constraint": null, "bias_constraint": null}, "registered_name": null, "build_config": {"input_shape": [null, 6, 6, 128]}, "name": "conv5_block11_2_conv", "inbound_nodes": [[["conv5_block11_1_relu", 0, 0, {}]]]}, {"module": "keras.layers", "class_name": "Concatenate", "config": {"name": "conv5_block11_concat", "trainable": false, "dtype": "float32", "axis": 3}, "registered_name": null, "build_config": {"input_shape": [[null, 6, 6, 832], [null, 6, 6, 32]]}, "name": "conv5_block11_concat", "inbound_nodes": [[["conv5_block10_concat", 0, 0, {}], ["conv5_block11_2_conv", 0, 0, {}]]]}, {"module": "keras.layers", "class_name": "BatchNormalization", "config": {"name": "conv5_block12_0_bn", "trainable": false, "dtype": "float32", "axis": [3], "momentum": 0.99, "epsilon": 1.001e-05, "center": true, "scale": true, "beta_initializer": {"module": "keras.initializers", "class_name": "Zeros", "config": {}, "registered_name": null}, "gamma_initializer": {"module": "keras.initializers", "class_name": "Ones", "config": {}, "registered_name": null}, "moving_mean_initializer": {"module": "keras.initializers", "class_name": "Zeros", "config": {}, "registered_name": null}, "moving_variance_initializer": {"module": "keras.initializers", "class_name": "Ones", "config": {}, "registered_name": null}, "beta_regularizer": null, "gamma_regularizer": null, "beta_constraint": null, "gamma_constraint": null}, "registered_name": null, "build_config": {"input_shape": [null, 6, 6, 864]}, "name": "conv5_block12_0_bn", "inbound_nodes": [[["conv5_block11_concat", 0, 0, {}]]]}, {"module": "keras.layers", "class_name": "Activation", "config": {"name": "conv5_block12_0_relu", "trainable": false, "dtype": "float32", "activation": "relu"}, "registered_name": null, "build_config": {"input_shape": [null, 6, 6, 864]}, "name": "conv5_block12_0_relu", "inbound_nodes": [[["conv5_block12_0_bn", 0, 0, {}]]]}, {"module": "keras.layers", "class_name": "Conv2D", "config": {"name": "conv5_block12_1_conv", "trainable": false, "dtype": "float32", "filters": 128, "kernel_size": [1, 1], "strides": [1, 1], "padding": "valid", "data_format": "channels_last", "dilation_rate": [1, 1], "groups": 1, "activation": "linear", "use_bias": false, "kernel_initializer": {"module": "keras.initializers", "class_name": "GlorotUniform", "config": {"seed": null}, "registered_name": null}, "bias_initializer": {"module": "keras.initializers", "class_name": "Zeros", "config": {}, "registered_name": null}, "kernel_regularizer": null, "bias_regularizer": null, "activity_regularizer": null, "kernel_constraint": null, "bias_constraint": null}, "registered_name": null, "build_config": {"input_shape": [null, 6, 6, 864]}, "name": "conv5_block12_1_conv", "inbound_nodes": [[["conv5_block12_0_relu", 0, 0, {}]]]}, {"module": "keras.layers", "class_name": "BatchNormalization", "config": {"name": "conv5_block12_1_bn", "trainable": false, "dtype": "float32", "axis": [3], "momentum": 0.99, "epsilon": 1.001e-05, "center": true, "scale": true, "beta_initializer": {"module": "keras.initializers", "class_name": "Zeros", "config": {}, "registered_name": null}, "gamma_initializer": {"module": "keras.initializers", "class_name": "Ones", "config": {}, "registered_name": null}, "moving_mean_initializer": {"module": "keras.initializers", "class_name": "Zeros", "config": {}, "registered_name": null}, "moving_variance_initializer": {"module": "keras.initializers", "class_name": "Ones", "config": {}, "registered_name": null}, "beta_regularizer": null, "gamma_regularizer": null, "beta_constraint": null, "gamma_constraint": null}, "registered_name": null, "build_config": {"input_shape": [null, 6, 6, 128]}, "name": "conv5_block12_1_bn", "inbound_nodes": [[["conv5_block12_1_conv", 0, 0, {}]]]}, {"module": "keras.layers", "class_name": "Activation", "config": {"name": "conv5_block12_1_relu", "trainable": false, "dtype": "float32", "activation": "relu"}, "registered_name": null, "build_config": {"input_shape": [null, 6, 6, 128]}, "name": "conv5_block12_1_relu", "inbound_nodes": [[["conv5_block12_1_bn", 0, 0, {}]]]}, {"module": "keras.layers", "class_name": "Conv2D", "config": {"name": "conv5_block12_2_conv", "trainable": false, "dtype": "float32", "filters": 32, "kernel_size": [3, 3], "strides": [1, 1], "padding": "same", "data_format": "channels_last", "dilation_rate": [1, 1], "groups": 1, "activation": "linear", "use_bias": false, "kernel_initializer": {"module": "keras.initializers", "class_name": "GlorotUniform", "config": {"seed": null}, "registered_name": null}, "bias_initializer": {"module": "keras.initializers", "class_name": "Zeros", "config": {}, "registered_name": null}, "kernel_regularizer": null, "bias_regularizer": null, "activity_regularizer": null, "kernel_constraint": null, "bias_constraint": null}, "registered_name": null, "build_config": {"input_shape": [null, 6, 6, 128]}, "name": "conv5_block12_2_conv", "inbound_nodes": [[["conv5_block12_1_relu", 0, 0, {}]]]}, {"module": "keras.layers", "class_name": "Concatenate", "config": {"name": "conv5_block12_concat", "trainable": false, "dtype": "float32", "axis": 3}, "registered_name": null, "build_config": {"input_shape": [[null, 6, 6, 864], [null, 6, 6, 32]]}, "name": "conv5_block12_concat", "inbound_nodes": [[["conv5_block11_concat", 0, 0, {}], ["conv5_block12_2_conv", 0, 0, {}]]]}, {"module": "keras.layers", "class_name": "BatchNormalization", "config": {"name": "conv5_block13_0_bn", "trainable": false, "dtype": "float32", "axis": [3], "momentum": 0.99, "epsilon": 1.001e-05, "center": true, "scale": true, "beta_initializer": {"module": "keras.initializers", "class_name": "Zeros", "config": {}, "registered_name": null}, "gamma_initializer": {"module": "keras.initializers", "class_name": "Ones", "config": {}, "registered_name": null}, "moving_mean_initializer": {"module": "keras.initializers", "class_name": "Zeros", "config": {}, "registered_name": null}, "moving_variance_initializer": {"module": "keras.initializers", "class_name": "Ones", "config": {}, "registered_name": null}, "beta_regularizer": null, "gamma_regularizer": null, "beta_constraint": null, "gamma_constraint": null}, "registered_name": null, "build_config": {"input_shape": [null, 6, 6, 896]}, "name": "conv5_block13_0_bn", "inbound_nodes": [[["conv5_block12_concat", 0, 0, {}]]]}, {"module": "keras.layers", "class_name": "Activation", "config": {"name": "conv5_block13_0_relu", "trainable": false, "dtype": "float32", "activation": "relu"}, "registered_name": null, "build_config": {"input_shape": [null, 6, 6, 896]}, "name": "conv5_block13_0_relu", "inbound_nodes": [[["conv5_block13_0_bn", 0, 0, {}]]]}, {"module": "keras.layers", "class_name": "Conv2D", "config": {"name": "conv5_block13_1_conv", "trainable": false, "dtype": "float32", "filters": 128, "kernel_size": [1, 1], "strides": [1, 1], "padding": "valid", "data_format": "channels_last", "dilation_rate": [1, 1], "groups": 1, "activation": "linear", "use_bias": false, "kernel_initializer": {"module": "keras.initializers", "class_name": "GlorotUniform", "config": {"seed": null}, "registered_name": null}, "bias_initializer": {"module": "keras.initializers", "class_name": "Zeros", "config": {}, "registered_name": null}, "kernel_regularizer": null, "bias_regularizer": null, "activity_regularizer": null, "kernel_constraint": null, "bias_constraint": null}, "registered_name": null, "build_config": {"input_shape": [null, 6, 6, 896]}, "name": "conv5_block13_1_conv", "inbound_nodes": [[["conv5_block13_0_relu", 0, 0, {}]]]}, {"module": "keras.layers", "class_name": "BatchNormalization", "config": {"name": "conv5_block13_1_bn", "trainable": false, "dtype": "float32", "axis": [3], "momentum": 0.99, "epsilon": 1.001e-05, "center": true, "scale": true, "beta_initializer": {"module": "keras.initializers", "class_name": "Zeros", "config": {}, "registered_name": null}, "gamma_initializer": {"module": "keras.initializers", "class_name": "Ones", "config": {}, "registered_name": null}, "moving_mean_initializer": {"module": "keras.initializers", "class_name": "Zeros", "config": {}, "registered_name": null}, "moving_variance_initializer": {"module": "keras.initializers", "class_name": "Ones", "config": {}, "registered_name": null}, "beta_regularizer": null, "gamma_regularizer": null, "beta_constraint": null, "gamma_constraint": null}, "registered_name": null, "build_config": {"input_shape": [null, 6, 6, 128]}, "name": "conv5_block13_1_bn", "inbound_nodes": [[["conv5_block13_1_conv", 0, 0, {}]]]}, {"module": "keras.layers", "class_name": "Activation", "config": {"name": "conv5_block13_1_relu", "trainable": false, "dtype": "float32", "activation": "relu"}, "registered_name": null, "build_config": {"input_shape": [null, 6, 6, 128]}, "name": "conv5_block13_1_relu", "inbound_nodes": [[["conv5_block13_1_bn", 0, 0, {}]]]}, {"module": "keras.layers", "class_name": "Conv2D", "config": {"name": "conv5_block13_2_conv", "trainable": false, "dtype": "float32", "filters": 32, "kernel_size": [3, 3], "strides": [1, 1], "padding": "same", "data_format": "channels_last", "dilation_rate": [1, 1], "groups": 1, "activation": "linear", "use_bias": false, "kernel_initializer": {"module": "keras.initializers", "class_name": "GlorotUniform", "config": {"seed": null}, "registered_name": null}, "bias_initializer": {"module": "keras.initializers", "class_name": "Zeros", "config": {}, "registered_name": null}, "kernel_regularizer": null, "bias_regularizer": null, "activity_regularizer": null, "kernel_constraint": null, "bias_constraint": null}, "registered_name": null, "build_config": {"input_shape": [null, 6, 6, 128]}, "name": "conv5_block13_2_conv", "inbound_nodes": [[["conv5_block13_1_relu", 0, 0, {}]]]}, {"module": "keras.layers", "class_name": "Concatenate", "config": {"name": "conv5_block13_concat", "trainable": false, "dtype": "float32", "axis": 3}, "registered_name": null, "build_config": {"input_shape": [[null, 6, 6, 896], [null, 6, 6, 32]]}, "name": "conv5_block13_concat", "inbound_nodes": [[["conv5_block12_concat", 0, 0, {}], ["conv5_block13_2_conv", 0, 0, {}]]]}, {"module": "keras.layers", "class_name": "BatchNormalization", "config": {"name": "conv5_block14_0_bn", "trainable": false, "dtype": "float32", "axis": [3], "momentum": 0.99, "epsilon": 1.001e-05, "center": true, "scale": true, "beta_initializer": {"module": "keras.initializers", "class_name": "Zeros", "config": {}, "registered_name": null}, "gamma_initializer": {"module": "keras.initializers", "class_name": "Ones", "config": {}, "registered_name": null}, "moving_mean_initializer": {"module": "keras.initializers", "class_name": "Zeros", "config": {}, "registered_name": null}, "moving_variance_initializer": {"module": "keras.initializers", "class_name": "Ones", "config": {}, "registered_name": null}, "beta_regularizer": null, "gamma_regularizer": null, "beta_constraint": null, "gamma_constraint": null}, "registered_name": null, "build_config": {"input_shape": [null, 6, 6, 928]}, "name": "conv5_block14_0_bn", "inbound_nodes": [[["conv5_block13_concat", 0, 0, {}]]]}, {"module": "keras.layers", "class_name": "Activation", "config": {"name": "conv5_block14_0_relu", "trainable": false, "dtype": "float32", "activation": "relu"}, "registered_name": null, "build_config": {"input_shape": [null, 6, 6, 928]}, "name": "conv5_block14_0_relu", "inbound_nodes": [[["conv5_block14_0_bn", 0, 0, {}]]]}, {"module": "keras.layers", "class_name": "Conv2D", "config": {"name": "conv5_block14_1_conv", "trainable": false, "dtype": "float32", "filters": 128, "kernel_size": [1, 1], "strides": [1, 1], "padding": "valid", "data_format": "channels_last", "dilation_rate": [1, 1], "groups": 1, "activation": "linear", "use_bias": false, "kernel_initializer": {"module": "keras.initializers", "class_name": "GlorotUniform", "config": {"seed": null}, "registered_name": null}, "bias_initializer": {"module": "keras.initializers", "class_name": "Zeros", "config": {}, "registered_name": null}, "kernel_regularizer": null, "bias_regularizer": null, "activity_regularizer": null, "kernel_constraint": null, "bias_constraint": null}, "registered_name": null, "build_config": {"input_shape": [null, 6, 6, 928]}, "name": "conv5_block14_1_conv", "inbound_nodes": [[["conv5_block14_0_relu", 0, 0, {}]]]}, {"module": "keras.layers", "class_name": "BatchNormalization", "config": {"name": "conv5_block14_1_bn", "trainable": false, "dtype": "float32", "axis": [3], "momentum": 0.99, "epsilon": 1.001e-05, "center": true, "scale": true, "beta_initializer": {"module": "keras.initializers", "class_name": "Zeros", "config": {}, "registered_name": null}, "gamma_initializer": {"module": "keras.initializers", "class_name": "Ones", "config": {}, "registered_name": null}, "moving_mean_initializer": {"module": "keras.initializers", "class_name": "Zeros", "config": {}, "registered_name": null}, "moving_variance_initializer": {"module": "keras.initializers", "class_name": "Ones", "config": {}, "registered_name": null}, "beta_regularizer": null, "gamma_regularizer": null, "beta_constraint": null, "gamma_constraint": null}, "registered_name": null, "build_config": {"input_shape": [null, 6, 6, 128]}, "name": "conv5_block14_1_bn", "inbound_nodes": [[["conv5_block14_1_conv", 0, 0, {}]]]}, {"module": "keras.layers", "class_name": "Activation", "config": {"name": "conv5_block14_1_relu", "trainable": false, "dtype": "float32", "activation": "relu"}, "registered_name": null, "build_config": {"input_shape": [null, 6, 6, 128]}, "name": "conv5_block14_1_relu", "inbound_nodes": [[["conv5_block14_1_bn", 0, 0, {}]]]}, {"module": "keras.layers", "class_name": "Conv2D", "config": {"name": "conv5_block14_2_conv", "trainable": false, "dtype": "float32", "filters": 32, "kernel_size": [3, 3], "strides": [1, 1], "padding": "same", "data_format": "channels_last", "dilation_rate": [1, 1], "groups": 1, "activation": "linear", "use_bias": false, "kernel_initializer": {"module": "keras.initializers", "class_name": "GlorotUniform", "config": {"seed": null}, "registered_name": null}, "bias_initializer": {"module": "keras.initializers", "class_name": "Zeros", "config": {}, "registered_name": null}, "kernel_regularizer": null, "bias_regularizer": null, "activity_regularizer": null, "kernel_constraint": null, "bias_constraint": null}, "registered_name": null, "build_config": {"input_shape": [null, 6, 6, 128]}, "name": "conv5_block14_2_conv", "inbound_nodes": [[["conv5_block14_1_relu", 0, 0, {}]]]}, {"module": "keras.layers", "class_name": "Concatenate", "config": {"name": "conv5_block14_concat", "trainable": false, "dtype": "float32", "axis": 3}, "registered_name": null, "build_config": {"input_shape": [[null, 6, 6, 928], [null, 6, 6, 32]]}, "name": "conv5_block14_concat", "inbound_nodes": [[["conv5_block13_concat", 0, 0, {}], ["conv5_block14_2_conv", 0, 0, {}]]]}, {"module": "keras.layers", "class_name": "BatchNormalization", "config": {"name": "conv5_block15_0_bn", "trainable": false, "dtype": "float32", "axis": [3], "momentum": 0.99, "epsilon": 1.001e-05, "center": true, "scale": true, "beta_initializer": {"module": "keras.initializers", "class_name": "Zeros", "config": {}, "registered_name": null}, "gamma_initializer": {"module": "keras.initializers", "class_name": "Ones", "config": {}, "registered_name": null}, "moving_mean_initializer": {"module": "keras.initializers", "class_name": "Zeros", "config": {}, "registered_name": null}, "moving_variance_initializer": {"module": "keras.initializers", "class_name": "Ones", "config": {}, "registered_name": null}, "beta_regularizer": null, "gamma_regularizer": null, "beta_constraint": null, "gamma_constraint": null}, "registered_name": null, "build_config": {"input_shape": [null, 6, 6, 960]}, "name": "conv5_block15_0_bn", "inbound_nodes": [[["conv5_block14_concat", 0, 0, {}]]]}, {"module": "keras.layers", "class_name": "Activation", "config": {"name": "conv5_block15_0_relu", "trainable": false, "dtype": "float32", "activation": "relu"}, "registered_name": null, "build_config": {"input_shape": [null, 6, 6, 960]}, "name": "conv5_block15_0_relu", "inbound_nodes": [[["conv5_block15_0_bn", 0, 0, {}]]]}, {"module": "keras.layers", "class_name": "Conv2D", "config": {"name": "conv5_block15_1_conv", "trainable": false, "dtype": "float32", "filters": 128, "kernel_size": [1, 1], "strides": [1, 1], "padding": "valid", "data_format": "channels_last", "dilation_rate": [1, 1], "groups": 1, "activation": "linear", "use_bias": false, "kernel_initializer": {"module": "keras.initializers", "class_name": "GlorotUniform", "config": {"seed": null}, "registered_name": null}, "bias_initializer": {"module": "keras.initializers", "class_name": "Zeros", "config": {}, "registered_name": null}, "kernel_regularizer": null, "bias_regularizer": null, "activity_regularizer": null, "kernel_constraint": null, "bias_constraint": null}, "registered_name": null, "build_config": {"input_shape": [null, 6, 6, 960]}, "name": "conv5_block15_1_conv", "inbound_nodes": [[["conv5_block15_0_relu", 0, 0, {}]]]}, {"module": "keras.layers", "class_name": "BatchNormalization", "config": {"name": "conv5_block15_1_bn", "trainable": false, "dtype": "float32", "axis": [3], "momentum": 0.99, "epsilon": 1.001e-05, "center": true, "scale": true, "beta_initializer": {"module": "keras.initializers", "class_name": "Zeros", "config": {}, "registered_name": null}, "gamma_initializer": {"module": "keras.initializers", "class_name": "Ones", "config": {}, "registered_name": null}, "moving_mean_initializer": {"module": "keras.initializers", "class_name": "Zeros", "config": {}, "registered_name": null}, "moving_variance_initializer": {"module": "keras.initializers", "class_name": "Ones", "config": {}, "registered_name": null}, "beta_regularizer": null, "gamma_regularizer": null, "beta_constraint": null, "gamma_constraint": null}, "registered_name": null, "build_config": {"input_shape": [null, 6, 6, 128]}, "name": "conv5_block15_1_bn", "inbound_nodes": [[["conv5_block15_1_conv", 0, 0, {}]]]}, {"module": "keras.layers", "class_name": "Activation", "config": {"name": "conv5_block15_1_relu", "trainable": false, "dtype": "float32", "activation": "relu"}, "registered_name": null, "build_config": {"input_shape": [null, 6, 6, 128]}, "name": "conv5_block15_1_relu", "inbound_nodes": [[["conv5_block15_1_bn", 0, 0, {}]]]}, {"module": "keras.layers", "class_name": "Conv2D", "config": {"name": "conv5_block15_2_conv", "trainable": false, "dtype": "float32", "filters": 32, "kernel_size": [3, 3], "strides": [1, 1], "padding": "same", "data_format": "channels_last", "dilation_rate": [1, 1], "groups": 1, "activation": "linear", "use_bias": false, "kernel_initializer": {"module": "keras.initializers", "class_name": "GlorotUniform", "config": {"seed": null}, "registered_name": null}, "bias_initializer": {"module": "keras.initializers", "class_name": "Zeros", "config": {}, "registered_name": null}, "kernel_regularizer": null, "bias_regularizer": null, "activity_regularizer": null, "kernel_constraint": null, "bias_constraint": null}, "registered_name": null, "build_config": {"input_shape": [null, 6, 6, 128]}, "name": "conv5_block15_2_conv", "inbound_nodes": [[["conv5_block15_1_relu", 0, 0, {}]]]}, {"module": "keras.layers", "class_name": "Concatenate", "config": {"name": "conv5_block15_concat", "trainable": false, "dtype": "float32", "axis": 3}, "registered_name": null, "build_config": {"input_shape": [[null, 6, 6, 960], [null, 6, 6, 32]]}, "name": "conv5_block15_concat", "inbound_nodes": [[["conv5_block14_concat", 0, 0, {}], ["conv5_block15_2_conv", 0, 0, {}]]]}, {"module": "keras.layers", "class_name": "BatchNormalization", "config": {"name": "conv5_block16_0_bn", "trainable": false, "dtype": "float32", "axis": [3], "momentum": 0.99, "epsilon": 1.001e-05, "center": true, "scale": true, "beta_initializer": {"module": "keras.initializers", "class_name": "Zeros", "config": {}, "registered_name": null}, "gamma_initializer": {"module": "keras.initializers", "class_name": "Ones", "config": {}, "registered_name": null}, "moving_mean_initializer": {"module": "keras.initializers", "class_name": "Zeros", "config": {}, "registered_name": null}, "moving_variance_initializer": {"module": "keras.initializers", "class_name": "Ones", "config": {}, "registered_name": null}, "beta_regularizer": null, "gamma_regularizer": null, "beta_constraint": null, "gamma_constraint": null}, "registered_name": null, "build_config": {"input_shape": [null, 6, 6, 992]}, "name": "conv5_block16_0_bn", "inbound_nodes": [[["conv5_block15_concat", 0, 0, {}]]]}, {"module": "keras.layers", "class_name": "Activation", "config": {"name": "conv5_block16_0_relu", "trainable": false, "dtype": "float32", "activation": "relu"}, "registered_name": null, "build_config": {"input_shape": [null, 6, 6, 992]}, "name": "conv5_block16_0_relu", "inbound_nodes": [[["conv5_block16_0_bn", 0, 0, {}]]]}, {"module": "keras.layers", "class_name": "Conv2D", "config": {"name": "conv5_block16_1_conv", "trainable": false, "dtype": "float32", "filters": 128, "kernel_size": [1, 1], "strides": [1, 1], "padding": "valid", "data_format": "channels_last", "dilation_rate": [1, 1], "groups": 1, "activation": "linear", "use_bias": false, "kernel_initializer": {"module": "keras.initializers", "class_name": "GlorotUniform", "config": {"seed": null}, "registered_name": null}, "bias_initializer": {"module": "keras.initializers", "class_name": "Zeros", "config": {}, "registered_name": null}, "kernel_regularizer": null, "bias_regularizer": null, "activity_regularizer": null, "kernel_constraint": null, "bias_constraint": null}, "registered_name": null, "build_config": {"input_shape": [null, 6, 6, 992]}, "name": "conv5_block16_1_conv", "inbound_nodes": [[["conv5_block16_0_relu", 0, 0, {}]]]}, {"module": "keras.layers", "class_name": "BatchNormalization", "config": {"name": "conv5_block16_1_bn", "trainable": false, "dtype": "float32", "axis": [3], "momentum": 0.99, "epsilon": 1.001e-05, "center": true, "scale": true, "beta_initializer": {"module": "keras.initializers", "class_name": "Zeros", "config": {}, "registered_name": null}, "gamma_initializer": {"module": "keras.initializers", "class_name": "Ones", "config": {}, "registered_name": null}, "moving_mean_initializer": {"module": "keras.initializers", "class_name": "Zeros", "config": {}, "registered_name": null}, "moving_variance_initializer": {"module": "keras.initializers", "class_name": "Ones", "config": {}, "registered_name": null}, "beta_regularizer": null, "gamma_regularizer": null, "beta_constraint": null, "gamma_constraint": null}, "registered_name": null, "build_config": {"input_shape": [null, 6, 6, 128]}, "name": "conv5_block16_1_bn", "inbound_nodes": [[["conv5_block16_1_conv", 0, 0, {}]]]}, {"module": "keras.layers", "class_name": "Activation", "config": {"name": "conv5_block16_1_relu", "trainable": false, "dtype": "float32", "activation": "relu"}, "registered_name": null, "build_config": {"input_shape": [null, 6, 6, 128]}, "name": "conv5_block16_1_relu", "inbound_nodes": [[["conv5_block16_1_bn", 0, 0, {}]]]}, {"module": "keras.layers", "class_name": "Conv2D", "config": {"name": "conv5_block16_2_conv", "trainable": false, "dtype": "float32", "filters": 32, "kernel_size": [3, 3], "strides": [1, 1], "padding": "same", "data_format": "channels_last", "dilation_rate": [1, 1], "groups": 1, "activation": "linear", "use_bias": false, "kernel_initializer": {"module": "keras.initializers", "class_name": "GlorotUniform", "config": {"seed": null}, "registered_name": null}, "bias_initializer": {"module": "keras.initializers", "class_name": "Zeros", "config": {}, "registered_name": null}, "kernel_regularizer": null, "bias_regularizer": null, "activity_regularizer": null, "kernel_constraint": null, "bias_constraint": null}, "registered_name": null, "build_config": {"input_shape": [null, 6, 6, 128]}, "name": "conv5_block16_2_conv", "inbound_nodes": [[["conv5_block16_1_relu", 0, 0, {}]]]}, {"module": "keras.layers", "class_name": "Concatenate", "config": {"name": "conv5_block16_concat", "trainable": false, "dtype": "float32", "axis": 3}, "registered_name": null, "build_config": {"input_shape": [[null, 6, 6, 992], [null, 6, 6, 32]]}, "name": "conv5_block16_concat", "inbound_nodes": [[["conv5_block15_concat", 0, 0, {}], ["conv5_block16_2_conv", 0, 0, {}]]]}, {"module": "keras.layers", "class_name": "BatchNormalization", "config": {"name": "bn", "trainable": false, "dtype": "float32", "axis": [3], "momentum": 0.99, "epsilon": 1.001e-05, "center": true, "scale": true, "beta_initializer": {"module": "keras.initializers", "class_name": "Zeros", "config": {}, "registered_name": null}, "gamma_initializer": {"module": "keras.initializers", "class_name": "Ones", "config": {}, "registered_name": null}, "moving_mean_initializer": {"module": "keras.initializers", "class_name": "Zeros", "config": {}, "registered_name": null}, "moving_variance_initializer": {"module": "keras.initializers", "class_name": "Ones", "config": {}, "registered_name": null}, "beta_regularizer": null, "gamma_regularizer": null, "beta_constraint": null, "gamma_constraint": null}, "registered_name": null, "build_config": {"input_shape": [null, 6, 6, 1024]}, "name": "bn", "inbound_nodes": [[["conv5_block16_concat", 0, 0, {}]]]}, {"module": "keras.layers", "class_name": "Activation", "config": {"name": "relu", "trainable": false, "dtype": "float32", "activation": "relu"}, "registered_name": null, "build_config": {"input_shape": [null, 6, 6, 1024]}, "name": "relu", "inbound_nodes": [[["bn", 0, 0, {}]]]}], "input_layers": [["input_2", 0, 0]], "output_layers": [["relu", 0, 0]]}, "registered_name": "Functional", "build_config": {"input_shape": [null, 200, 200, 3]}}, {"module": "keras.layers", "class_name": "GlobalMaxPooling2D", "config": {"name": "global_max_pooling2d_1", "trainable": true, "dtype": "float32", "data_format": "channels_last", "keepdims": false}, "registered_name": null, "build_config": {"input_shape": [null, 6, 6, 1024]}}]}, "keras_version": "2.13.1", "backend": "tensorflow"}